saved_models/d.pt (torch, 259575 bytes, 7 tensors)

lin1.weight f4 [197, 12]
0.13115226 -0.22153811 -0.15138035 -0.05862201 0.06461212 0.08303232 -0.022518793 -0.14271204
0.018404031 -0.25735635 0.16647524 0.13867281 -0.24582504 0.18172367 0.21766256 -0.11157878
0.017420324 -0.20089336 0.13803321 -0.10880012 0.13607238 -0.031003939 0.24368331 0.13894317
0.1313955 -0.14389294 -0.16366786 0.008303007 -0.04789997 -0.1889827 0.031353146 -0.12740797
0.056789596 0.024698885 0.16922323 -0.009634879 0.14389108 0.22391735 -0.26545548 0.13428214
0.23023784 -0.053772625 -0.14279908 -0.12598191 -0.1803449 -0.0045425203 0.07082377 -0.022196006
-0.18650575 0.029957315 0.17798442 -0.19410598 0.1285619 0.03192582 -0.098130986 -0.19421601
0.021813631 -0.017030727 -0.20407191 0.25603145 0.09777347 -0.23380308 0.09989946 -0.18880975
0.12144207 0.23058029 -0.11833867 4.7630816e-05 0.038526822 -0.22685888 -0.017549545 -0.16498086
-0.055046655 0.1689788 0.027145006 0.045501877 -0.16099624 0.038850304 0.23014475 0.07843888
-0.24308263 0.020411303 -0.08479517 -0.15233944 -0.18563604 -0.1364851 -0.17743835 0.20304583
-0.18009518 -0.011804935 -0.1552541 -0.060213115 -0.21756953 0.2384974 -0.0021797097 -0.014694838
0.11840821 -0.09553679 -0.15309136 -0.08290138 -0.17016324 -0.25808936 0.15523039 0.2320347
0.1619601 0.10925416 0.26187256 0.20927282 -0.14272064 -0.11893366 0.048046026 -0.102252424
0.022319874 -0.2650978 -0.18202388 0.15504315 0.26554203 0.13290462 -0.013813933 -0.15300874
0.14141567 -0.11880626 -0.2632425 -0.09507141 -0.151703 -0.2375024 -0.13432816 0.13559264
0.042405643 0.14166409 0.12929367 0.063401565 0.26565674 -0.2652055 -0.25883788 -0.20410183
0.2043224 -0.24151996 0.20518719 -0.020612728 0.21112232 0.057763714 0.10484606 0.12842196
-0.13330947 -0.11625813 0.06382271 0.19991611 -0.2610406 0.05250384 0.18967888 0.014817002
0.2071569 -0.1352233 -0.11724403 -0.18882056 -0.18679959 -0.22655098 0.1205334 -0.25212
-0.108269 -0.039882533 0.14244504 -0.21676864 0.1519312 0.123539634 -0.09212819 -0.25808683
0.10274879 -0.040738348 0.027013501 0.22522898 -0.24095516 0.24459891 -0.2016473 0.16361117
-0.1095242 0.17448352 -0.21440725 0.031169744 0.089107975 -0.07784761 -0.19811532 -0.25457537
-0.10978416 -0.15360543 -0.016592925 0.025282372 -0.18735802 -0.16750862 -0.16257472 0.015709938
-0.25864083 -0.061376967 -0.06293583 0.035704352 0.15226835 -0.043205764 0.1259466 -0.062913895
-0.01576331 -0.19861682 -0.0035020178 -0.09280765 0.0010445631 0.11426261 0.12348099 0.11488121
0.025499502 0.23696293 -0.14760917 0.101361394 0.055746365 0.048069507 0.24825524 -0.13354087
0.18625093 0.0026726655 0.09656399 0.19717652 -0.073351435 0.1360616 0.10423548 -0.06422781
-0.25681576 -0.097066075 0.014141925 -0.1483098 0.14882325 -0.09392209 -0.020531476 0.017608598
-0.26800796 -0.124009274 -0.08192178 -0.17784613 0.097492464 -0.26206726 -0.25094905 0.024396898
-0.0654019 0.15329826 0.052575048 -0.06418173 0.26442856 -0.2233098 -0.13727032 -0.11642586
-0.14360861 0.08809009 0.0077766804 0.08673097 0.20034362 0.1299367 0.2033109 0.030422237
00000000: c74c 063e e3da 62be 7303 1bbe a21d 70bd
00000010: 5c53 843d d90c aa3d 5579 b8bc 1b23 12be
00000020: 0dc4 963c 36c4 83be 7c78 2a3e 3f00 0e3e
00000030: 8fb9 7bbe c515 3a3e efe2 5e3e 6a83 e4bd
00000040: 11b5 8e3c fdb6 4dbe 9458 0d3e 99d2 debd
00000050: 8f56 0b3e f9fb fdbc 1e88 793e 1e47 0e3e
00000060: 8b8c 063e ac58 13be 8c98 27be 5609 083c
00000070: c232 44bd ae84 41be 286c 003d 3c77 02be
00000080: 359c 683d 5155 ca3c db48 2d3e 9ddb 1dbc
00000090: 2f58 133e 974a 653e c8e9 87be 4281 093e
000000a0: 78c3 6b3e af40 5cbd ec39 12be 6701 01be
000000b0: 55ac 38be 6cd9 94bb 0d0c 913d 66d4 b5bc
000000c0: 5dfb 3ebe 0b69 f53c 8c41 363e b8c3 46be
000000d0: bba5 033e a6c4 023d e6f8 c8bd 90e0 46be
000000e0: 80b2 b23c 0684 8bbc 3af8 50be 8e16 833e
000000f0: 753d c83d 136a 6fbe 1798 cc3d 5857 41be
00000100: 9fb6 f83d 3d1d 6c3e 8b5b f2bd 33c7 4738
00000110: 4dce 1d3d b24d 68be 10c4 8fbc bef0 28be
00000120: 9a78 61bd c708 2d3e 345f de3c 2d60 3a3d
00000130: 33dc 24be 7f21 1f3d 11ab 6b3e 90a4 a03d
00000140: a7ea 78be 9b35 a73c 17a9 adbd dffe 1bbe
00000150: 6017 3ebe c0c2 0bbe 66b2 35be 3feb 4f3e
00000160: df6a 38be 7c69 41bc eefa 1ebe 07a2 76bd
00000170: 8cca 5ebe aa38 743e 76d9 0ebb 9ec2 70bc
00000180: 0180 f23d cba8 c3bd fbc3 1cbe 33c8 a9bd
00000190: 463f 2ebe 4a24 84be b7f4 1e3e 819a 6d3e
000001a0: ded8 253e a5c0 df3d 2914 863e 9d4b 563e
000001b0: 5c25 12be 7e93 f3bd e9cb 443d b869 d1bd
000001c0: 2bd8 b63c e6ba 87be 7864 3abe a2c3 1e3e
000001d0: 20f5 873e 2618 083e d653 62bc 53ae 1cbe
000001e0: 45cf 103e b250 f3bd b9c7 86be cdb4 c2bd
000001f0: 0858 1bbe d433 73be 528d 09be ccd8 0a3e
00000200: 8ab1 2d3d 6410 113e 8f65 043e aed8 813d
00000210: 2904 883e 04c9 87be 6686 84be 1200 51be
00000220: e439 513e 0251 77be 971c 523e 06dc a8bc
00000230: 7330 583e a599 6c3d 88b9 d63d 0c81 033e
00000240: 4782 08be be18 eebd 7bb5 823d cfb6 4c3e
00000250: 1da7 85be 440e 573d 2e3b 423e 03c3 723c
00000260: f020 543e fa77 0abe a31d f0bd 2d5a 41be
00000270: 6448 3fbe fbfc 67be 37da f63d df15 81be
00000280: 23bc ddbd de5b 23bd 1ddd 113e 99f8 5dbe
00000290: da93 1b3e 5902 fd3d b4ad bcbd f523 84be
000002a0: f56d d23d 41dd 26bd 6b4b dd3c 6da2 663e
000002b0: f3bc 76be 2378 7a3e a17c 4ebe b089 273e
000002c0: 394e e0bd cfab 323e 938d 5bbe b157 ff3c
000002d0: 3e7e b63d 916e 9fbd bede 4abe b457 82be
000002e0: 85d6 e0bd be4a 1dbe e3ed 87bc fa1c cf3c
000002f0: c8da 3fbe 6187 2bbe fd79 26be 21b2 803c
00000300: 926c 84be 6a66 7bbd 80e4 80bd ba3e 123d
00000310: 3cec 1b3e 87f8 30bd 25f8 003e 00d9 80bd
00000320: 0f22 81bc 3562 4bbe 1c82 65bb f011 bebd
00000330: b9e9 883a 8402 ea3d 9ae3 fc3d d746 eb3d
00000340: 55e4 d03c 69a6 723e dc26 17be 9096 cf3d
00000350: 4d56 643d 88e4 443d 9f36 7e3e f0be 08be
00000360: 90b8 3e3e e327 2f3b 57c3 c53d a4e8 493e
00000370: 4739 96bd bb53 0b3e 6979 d53d df89 83bd
00000380: 5b7d 83be 94ca c6bd 88b3 673c 86de 17be
00000390: 1f65 183e 3a5a c0bd a031 a8bc e83f 903c
000003a0: 5738 89be 93f8 fdbd 9bc6 a7bd 4c1d 36be
000003b0: 21aa c73d ae2d 86be 657c 80be 01dc c73c
000003c0: 6ef1 85bd 38fa 1c3e ef58 573d b671 83bd
000003d0: 2e63 873e 53ab 64be 9790 0cbe ae70 eebd
000003e0: 230e 13be 9468 b43d 86d3 fe3b 02a0 b13d
000003f0: e126 4d3e 200e 053e bc30 503e 0e38 f93c

lin1.bias f4 [197]
-0.040129054 -0.0127166 0.26826143 -0.05871942 -0.17454225 0.2729291 0.23323911 0.060214907
-0.13401571 0.016444163 0.17007406 -0.07088196 -0.06803661 0.0042476803 0.10796827 -0.1259965
0.17475156 0.18842307 -0.082901396 0.1374468 -0.17697252 0.24850067 -0.21125703 0.2410314
-0.25120342 0.1711698 -0.23416793 -0.07919772 -0.0059051584 -0.083215564 0.055482008 0.059865568
0.12903649 0.07821916 0.21692125 0.18396863 0.06524895 0.048102792 0.17223623 0.16090369
0.19565965 -0.12840079 0.25882706 -0.18217355 0.02581583 0.025678169 0.05381683 -0.05611104
-0.08925808 -0.018305553 -0.23044942 -0.047415413 -0.15443058 -0.15049605 0.021861436 0.21023205
0.18603899 0.22518599 -0.23178053 -0.16041507 -0.029595952 0.24487092 -0.22185299 0.23976429
-0.1670092 -0.1945956 -0.10934051 -0.18813694 0.22906323 -0.17561288 -0.16401331 -0.27344066
-0.18012033 -0.10589765 -0.019930247 -0.18979318 -0.0036504914 0.20237343 0.17070296 -0.1604172
-0.14519069 -0.10107182 -0.15335368 0.08279106 -0.16321646 -0.010004946 0.10068353 0.026835557
-0.18830661 0.17914197 -0.14816698 -0.21270332 -0.070460856 0.08588083 -0.22942089 0.21170102
-0.008235253 0.24350509 -0.020042151 -0.19239442 -0.045893192 -0.11082009 0.1663911 -0.003981381
0.17956233 -0.14893845 0.19901069 -0.2251185 -0.00608459 -0.20243278 0.029096944 -0.18620124
-0.22965582 0.18947804 0.19432554 0.058859494 0.06911401 -0.16667894 0.17282997 0.16092972
-0.09486817 -0.26870793 0.068368405 0.20259352 0.19978496 0.09302231 -0.18965451 0.2127632
-0.13811898 -0.06812179 0.16517405 -0.16609575 0.13261218 0.12394324 -0.0463819 0.15349355
-0.06608187 -0.14643872 0.22310321 0.024788817 0.009114154 0.13673344 0.17490658 -0.23518065
-0.16480133 0.26549208 -0.032373976 0.18979709 0.16127826 0.15030947 -0.012634527 -0.054858726
0.043371387 -0.12254634 0.0011846155 -0.23853298 0.07450404 0.1615315 -0.16990858 0.24069437
0.033027403 -0.09181095 0.04915353 -0.2063528 0.1357842 0.022680823 -0.10686963 -0.19184306
0.03830345 -0.06002704 -0.032926317 0.03878843 -0.01947758 -0.09496285 -0.2646392 -0.26638234
0.14840877 0.24700269 -0.09566687 -0.029367173 0.16207372 0.26990137 0.21735574 0.09345651
0.26232487 -0.24081321 -0.08950307 0.044026177 0.0052737705 0.12038799 -0.08067026 0.12354953
-0.00310364 -0.1660931 -0.048671015 -0.18218917 0.16259569
00000000: 5d5e 24bd 4959 50bc 9059 893e c683 70bd
00000010: 34bb 32be 5dbd 8b3e 3cd6 6e3e e8a3 763d
00000020: 6a3b 09be e9b5 863c e527 2e3e 902a 91bd
00000030: c756 8bbd 2030 8b3b 781e dd3d 3a05 01be
00000040: 13f2 323e faf1 403e 35c8 a9bd dbbe 0c3e
00000050: 4938 35be f676 7e3e c353 58be efd0 763e
00000060: bc9d 80be 2347 2f3e b8c9 6fbe 6a32 a2bd
00000070: 0f80 c1bb ec6c aabd 1a41 633d 9935 753d
00000080: 2422 043e 5e31 a03d 9b20 5e3e 4662 3c3e
00000090: 3ea1 853d 6f07 453d b25e 303e f0c3 243e
000000a0: 015b 483e 7f7b 03be fb84 843e b48b 3abe
000000b0: b87b d33c 065b d23c 096f 5c3d b1d4 65bd
000000c0: f1cc b6bd 87f5 95bc effa 6bbe aa36 42bd
000000d0: 0d23 1ebe a31b 1abe c116 b33c 1247 573e
000000e0: 0181 3e3e 2897 663e e057 6dbe d943 24be
000000f0: 3673 f2bc 71bf 7a3e 6e2d 63be c584 753e
00000100: 7604 2bbe 1244 47be ebed dfbd f8a6 40be
00000110: 8d8f 6a3e ddd3 33be 1bf3 27be 6a00 8cbe
00000120: 7771 38be dee0 d8bd c244 a3bc 2559 42be
00000130: 153d 6fbb fb3a 4f3e c2cc 2e3e 6844 24be
00000140: deac 14be befe cebd bf08 1dbe 5c8e a93d
00000150: 3722 27be c9eb 23bc 2b33 ce3d 3ed6 db3c
00000160: 73d3 40be fe70 373e 16b9 17be e6ce 59be
00000170: c84d 90bd 4ae2 af3d 4fed 6abe 27c8 583e
00000180: 28ed 06bc 6659 793e 702f a4bc 0b03 45be
00000190: 80fa 3bbd a5f5 e2bd 6e62 2a3e 3f76 82bb
000001a0: 30df 373e 5283 18be 75c9 4b3e 7785 66be
000001b0: 3e61 c7bb 8a4a 4fbe b75c ee3c 8aab 3ebe
000001c0: e52a 6bbe 8806 423e 46fd 463e a716 713d
000001d0: a58b 8d3d e2ad 2abe 57fa 303e c3ca 243e
000001e0: 3e4a c2bd 1694 89be bc04 8c3d ad74 4f3e
000001f0: 6e94 4c3e 7b82 be3d cb34 42be 99de 593e
00000200: 106f 0dbe 7083 8bbd 6323 293e 0115 2abe
00000210: 7dcb 073e f4d5 fd3d f2fa 3dbd 6a2d 1d3e
00000220: ee55 87bd 08f4 15be 2b75 643e eb11 cb3c
00000230: 8853 153c da03 0c3e b61a 333e 32d3 70be
00000240: aec1 28be 94ee 873e 939a 04bd 2b5a 423e
00000250: 2126 253e baea 193e 0c01 4fbc 8bb3 60bd
00000260: 32a6 313d 93f9 fabd 1a45 9b3a fd41 74be
00000270: 9395 983d 8368 253e 84fc 2dbe 9678 763e
00000280: be47 073d 6107 bcbd 3655 493d 264e 53be
00000290: 030b 0b3e 22cd b93c 77de dabd 8272 44be
000002a0: 14e4 1c3d eade 75bd bfdd 06bd 9ee0 1e3d
000002b0: 728f 9fbc e27b c2bd ca7e 87be 4463 88be
000002c0: 78f8 173e 46ee 7c3e feec c3bd 6d93 f0bc
000002d0: a7f6 253e 8330 8a3e 8192 5e3e 2066 bf3d
000002e0: 724f 863e bd97 76be 634d b7bd cb54 343d
000002f0: 98cf ac3b fa8d f63d 7336 a5bd 8907 fd3d
00000300: 7066 4bbb 4f14 2abe 425b 47bd cc8f 3abe
00000310: 7c7f 263e

lin2.weight f4 [198, 197]
0.05562857 -0.016780222 -0.048411142 0.017887235 -0.054601457 -0.059910882 0.018403504 -0.03765387
-0.050311826 0.001523827 -0.029015714 -0.053982865 -0.03733436 -0.06505314 -0.019214269 0.05179569
0.046602752 -0.0071824603 -0.05389692 0.011148259 -0.0076980484 0.0026324482 0.0465843 -0.0535572
0.038789637 -0.03642996 -0.027291048 -0.033202752 -0.024722496 0.022071557 -0.054205198 -0.06476566
0.025084216 0.02559738 0.06667166 -0.038141187 -0.056673236 0.03323267 -0.0031761334 0.011304159
-0.038195554 -0.05531145 0.02197123 -0.0019231638 -0.052847512 0.042907886 -0.025532417 0.047947295
0.06208627 -0.0051626386 -0.0120454505 -0.05003636 -0.019688476 -0.0034399463 0.032241818 -0.03662897
0.03519979 -0.04543551 -0.026489807 0.021333106 0.05019714 -0.061693292 -0.034696206 0.03866144
-0.014773678 0.022883007 -0.0063856933 0.03259026 -0.020310337 -0.04615218 -0.0052154483 0.05495713
-0.060151964 -0.010338415 0.055401906 0.048170656 0.017401768 0.06491857 -0.05707601 0.040258948
-0.036244202 0.011498122 -0.009369726 0.04714214 0.0021928912 -0.0038382872 0.0635987 0.03637268
0.025637018 -0.03380329 0.007439234 -0.0018175141 0.022663549 0.014238227 -0.0418022 0.055852834
0.04310123 0.026069358 -0.060383704 0.04661041 0.063770786 0.025631573 0.058442306 0.048119143
0.012989573 0.04571252 -0.060921777 -0.03233929 -0.045626685 0.036714 0.0553923 0.0526486
-0.06590437 0.0206419 -0.0028090237 -0.004984575 -0.014731946 -0.020226676 0.05588722 0.04267062
0.06878155 0.021973139 0.05904466 -0.009992965 -0.008795111 -0.05665486 0.046435345 -0.007906693
0.03472967 -0.029730933 0.0074320473 0.018906254 0.047776233 -0.02675394 -0.017408337 -0.018470252
-0.049527247 0.004758681 -0.007895778 -0.0065803574 -0.03518288 -0.008866287 -0.06647681 -0.0628469
0.0012359871 0.007412765 -0.008407901 0.057348326 -0.030374046 0.038612843 0.02873891 -0.04462968
-0.039358377 0.0413113 -0.0530867 0.044143785 0.046920124 0.0067092045 -0.016736027 0.012813508
-0.06919391 -0.027370673 0.0412713 0.0057180678 -0.039657835 0.017613614 0.0003196533 0.023274595
-0.02092047 0.030461198 0.05394628 -0.05459066 -0.053764652 0.0068785218 0.048774883 0.06884828
0.06374643 0.03620202 0.052613832 0.040651735 0.03158414 0.040671997 -0.04232344 -0.05341329
0.018442959 -0.063297085 0.059478324 0.005088683 0.0052927686 0.0058715637 0.008592125 -0.01689986
0.027595866 -0.021731785 0.04918449 -0.0236202 0.021892084 -0.064777076 -0.06574733 0.0011767395
-0.02015257 -0.045947276 -0.018663675 0.06603129 -0.01031348 0.023235591 0.05304759 -0.0503573
0.030970003 0.026353301 -0.061210096 -0.047859117 -0.015855422 0.012283617 0.0011209762 -0.02442061
0.043876443 0.012777217 -0.018243117 -0.030482316 0.023161687 -0.033951603 -0.031894602 -0.030325549
-0.022254618 0.022801403 0.039390597 -0.02838947 -0.05027566 -0.017184073 -0.011032371 0.0090151355
0.039196465 -0.06416594 -0.04390374 0.04012618 0.057808146 -0.058073018 0.0064479993 0.0027505853
-0.029872153 0.0026520733 0.016125424 0.053518467 0.02713505 -0.045254957 -0.054966282 0.029832022
0.028697712 -0.01881309 0.0015555756 0.035826888 -0.04023685 -0.0097191855 -0.04791602 0.045138754
00000000: c9da 633d ad76 89bc c34a 46bd 4088 923c
00000010: c7a5 5fbd 1d65 75bd f2c2 963c f23a 1abd
00000020: c613 4ebd 26bb c73a 5db2 edbc 231d 5dbd
00000030: eaeb 18bd 953a 85bd 3e67 9dbc b827 543d
00000040: 87e2 3e3d d85a ebbb 04c3 5cbd 30a7 363c
00000050: e93f fcbb 2785 2c3b 2ecf 3e3d cb5e 5bbd
00000060: e2e1 1e3d 9537 15bd 7a91 dfbc 9cff 07bd
00000070: d586 cabc 69cf b43c 4506 5ebd dca3 84bd
00000080: 6a7d cd3c 99b1 d13c 278b 883d ef39 1cbd
00000090: 3222 68bd fb1e 083d ad26 50bb 1435 393c
000000a0: f172 1cbd 428e 62bd 02fd b33c ab12 fcba
000000b0: a276 58bd 2ec0 2f3d 5c29 d1bc 6264 443d
000000c0: 2c4e 7e3d 5a2b a9bb 485a 45bc edf2 4cbd
000000d0: ba49 a1bc b970 61bb ff0f 043d 4208 16bd
000000e0: a82d 103d 961a 3abd 2701 d9bc c4c2 ae3c
000000f0: 849b 4d3d 1bb2 7cbd 9c1d 0ebd 755b 1e3d
00000100: 4c0d 72bc 2575 bb3c 143f d1bb 5d7d 053d
00000110: dd61 a6bc 110a 3dbd 5ae6 aabb ba1a 613d
00000120: e861 76bd 7562 29bc 1ced 623d 984e 453d
00000130: 278e 8e3c 07f4 843d 89c8 69bd 91e6 243d
00000140: cd74 14bd 9e62 3c3c 7b83 19bc 1e18 413d
00000150: 9cb6 0f3b c68b 7bbb 0940 823d 85fb 143d
00000160: b904 d23c 5275 0abd d1c4 f33b a739 eeba
00000170: e8a8 b93c 7447 693c c938 2bbd f1c5 643d
00000180: ea8a 303d 688f d53c e754 77bd 8fea 3e3d
00000190: 429a 823d 4ef9 d13c 3361 6f3d 9418 453d
000001a0: 38d2 543c 0d3d 3b3d 1d89 79bd 3476 04bd
000001b0: 0ce3 3abd 6b61 163d 09e3 623d 0fa6 573d
000001c0: dff8 86bd 3419 a93c 9917 38bb a555 a3bb
000001d0: 435e 71bc 6ab2 a5bc ffe9 643d 63c7 2e3d
000001e0: 57dd 8c3d 0301 b43c d0d8 713d 88b9 23bc
000001f0: 5f19 10bc ed0e 68bd fd32 3e3d 138b 01bc
00000200: b340 0e3d 498e f3bc 8888 f33b 4ae1 9a3c
00000210: 03b1 433d 142b dbbc ee9b 8ebc ed4e 97bc
00000220: 15dd 4abd b6ee 9b3b 4b5d 01bc 0aa0 d7bb
00000230: ec1b 10bd e743 11bc fe24 88bd e0b5 80bd
00000240: d800 a23a c8e6 f23b 4bc1 09bc 14e6 6a3d
00000250: fed2 f8bc 8028 1e3d dd6d eb3c 9dcd 36bd
00000260: 4036 21bd 0a36 293d 7171 59bd 1dd0 343d
00000270: 512f 403d e3d8 db3b fe19 89bc bfef 513c
00000280: 89b5 8dbd 7638 e0bc 180c 293d a15e bb3b
00000290: 4170 22bd 6d4a 903c 2497 a739 5daa be3c
000002a0: 6861 abbc c389 f93c c6f6 5c3d 759a 5fbd
000002b0: 5338 5cbd 3965 e13b 2cc8 473d 5400 8d3d
000002c0: 7d8d 823d 9248 143d 9a81 573d 6f82 263d
000002d0: 5f5e 013d ae97 263d 585b 2dbd e5c7 5abd
000002e0: b015 973c e7a1 81bd 8b9f 733d f8be a63b
000002f0: f66e ad3b 3f66 c03b fcc5 0c3c 9371 8abc
00000300: ba10 e23c db06 b2bc ad75 493d 267f c1bc
00000310: 0757 b33c d8a9 84bd 89a6 86bd d33c 9a3a
00000320: 0117 a5bc 3633 3cbd 90e4 98bc 6a3b 873d
00000330: dff9 28bc 9158 be3c 6e48 593d 7543 4ebd
00000340: ceb4 fd3c e1e2 d73c 70b7 7abd ec07 44bd
00000350: 3be3 81bc 3941 493c b8ed 923a bb0d c8bc
00000360: c9b7 333d 8857 513c 9772 95bc 0db6 f9bc
00000370: 94bd bd3c d610 0bbd eaa3 02bd 496d f8bc
00000380: 514f b6bc 02ca ba3c 0958 213d 0991 e8bc
00000390: daed 4dbd 9dc5 8cbc 1ec1 34bc 38b4 133c
000003a0: 798c 203d 6f69 83bd 68d4 33bd 595b 243d
000003b0: 3cc8 6c3d f9dd 6dbd bd49 d33b 2a43 343b
000003c0: 72b6 f4bc 68ce 2d3b 7719 843c 2e36 5b3d
000003d0: 534a de3c 435d 39bd 5324 61bd 4962 f43c
000003e0: 7717 eb3c e91d 9abc 75e4 cb3a 37bf 123d
000003f0: 65cf 24bd 383d 1fbc 9743 44bd 6ae3 383d

lin2.bias f4 [198]
0.010480841 0.052685592 0.001855699 -0.0350005 0.050292317 -0.016927062 0.032282624 0.047111034
0.060095485 0.020579297 -0.028305842 0.042305104 -0.062188525 0.044731505 0.0034957111 0.019340627
0.04778289 0.028024323 0.048372846 -0.039631173 -0.035954863 0.046829086 -0.02486042 -0.007316206
0.045641355 -0.005576532 0.0045159655 0.020462496 -0.044524513 0.06679389 0.045740165 0.010413868
-0.0012434267 -0.023332754 -0.055479165 -0.010024044 0.00036773543 0.040654454 0.0022315795 -0.020205036
-0.059663456 -0.054515664 0.0324944 0.056530066 0.05144985 0.0066029276 -0.018144254 -0.026827209
0.04754014 0.06930829 0.049406968 -0.043042343 -0.060970616 -0.047955547 0.041118145 0.020448193
-0.02786105 0.064636834 0.03627921 0.040657375 -0.015474073 0.058635406 0.05404495 -0.04665028
0.0043805065 0.03095915 -0.0077215834 0.054088157 -0.010062385 0.008963369 -0.05395418 -0.060350418
-0.019933369 -0.045514 0.015595275 0.0303298 0.031169346 -0.046150405 0.06397194 0.021152457
-0.008954496 -0.0020213374 0.02385579 -0.03579171 0.055147644 -0.05568881 -0.03960395 -0.056880318
0.016781908 0.013343383 -0.023125203 -0.03171722 -0.058370974 0.044590887 0.013417415 -0.049153082
-0.02225655 -0.043940414 0.06473927 0.01980851 0.05428064 0.031782337 0.06245034 -0.07207033
0.053114276 0.022268707 -0.032483928 0.05585524 0.06055259 -0.039525587 -0.018017733 -0.039236654
-0.052971732 -0.028757261 -0.026627917 -0.05041213 -0.03067677 0.0031527795 -0.066263914 -0.030066812
-0.011050993 0.034025934 0.038629044 -0.02840605 0.06053938 -0.044206474 -0.0021289885 -0.041313466
0.040014002 0.007009321 -0.03732385 0.02839887 -0.0029465165 -0.01727115 -0.020022653 0.05029577
0.055902902 0.06188684 0.04133799 0.054624647 -0.020694036 0.00876573 0.024715757 -0.06644914
0.02787432 -0.0376129 -0.017824499 0.045561906 0.05846685 0.048592385 0.014228763 0.004564998
-0.036772132 -0.061431397 0.0081457645 -0.030908328 -0.0172294 0.003555616 -0.040894937 0.057116106
-0.020636765 -0.017710697 -0.060222786 -0.058049522 -0.015196222 -0.033716265 0.06780982 0.04048375
-0.029050577 0.012582272 0.049992513 -0.033073965 -0.016623102 0.0028944628 0.029935317 -0.04616724
-0.06394497 0.033302817 0.009998592 0.0011547911 0.015029938 0.05057429 -0.06243408 0.0041096536
0.044858865 -0.053608697 -0.017045567 0.039637525 -0.0032085043 -0.05023798 -0.0012125704 -0.041213058
-0.004964523 0.03394836 0.020549374 -0.011291034 0.06190274 0.026892092
00000000: d5b7 2b3c d9cc 573d ed3a f33a af5c 0fbd
00000010: 51ff 4d3d 9faa 8abc c93a 043d 80f7 403d
00000020: af26 763d ea95 a83c a7e1 e7bc 1e48 2d3d
00000030: 65b9 7ebd 6238 373d 4d18 653b 3c70 9e3c
00000040: feb7 433d 4493 e53c 9b22 463d 4c54 22bd
00000050: 6845 13bd dbcf 3f3d 14a8 cbbc c9bc efbb
00000060: 6ef2 3a3d 57bb b6bb aafa 933b f7a0 a73c
00000070: 565f 36bd 3ccb 883d 0a5a 3b3d ee9e 2a3c
00000080: 7afa a2ba 5524 bfbc 1f3e 63bd e33b 24bc
00000090: 9dcc c039 4985 263d b13f 123b 0885 a5bc
000000a0: ab61 74bd d14b 5fbd d918 053d 128c 673d
000000b0: 14bd 523d 5f5d d83b 42a3 94bc bcc4 dbbc
000000c0: 73b9 423d 81f1 8d3d f65e 4a3d 2b4d 30bd
000000d0: 53bc 79bd 096d 44bd 806b 283d f882 a73c
000000e0: db3c e4bc 5160 843d 8299 143d 5988 263d
000000f0: f786 7dbc ae2b 703d 3d5e 5d3d 5d14 3fbd
00000100: 5a8a 8f3b 0b9e fd3c 5605 fdbb 8b8b 5d3d
00000110: b4dc 24bc 18db 123c 0fff 5cbd 0032 77bd
00000120: 4e4b a3bc e36c 3abd 5383 7f3c 3376 f83c
00000130: db56 ff3c 3508 3dbd b803 833d eb47 ad3c
00000140: e1b5 12bc 6a78 04bb 386d c33c 549a 12bd
00000150: 7fe2 613d f319 64bd c037 22bd 56fb 68bd
00000160: 367a 893c 349e 5a3c 1171 bdbc eae9 01bd
00000170: 6716 6fbd efa4 363d b8d4 5b3c be54 49bd
00000180: 5e53 b6bc ddfa 33bd 0696 843d 7545 a23c
00000190: 6055 5e3d 322e 023d edcb 7f3d 9c99 93bd
000001a0: 5b8e 593d dd6c b63c de0d 05bd 77c8 643d
000001b0: fe05 783d 95e5 21bd ed99 93bc 9db6 20bd
000001c0: e3f8 58bd 5994 ebbc ca22 dabc f37c 4ebd
000001d0: d94d fbbc dd9e 4e3b 60b5 87bd ad4e f6bc
000001e0: 390f 35bc c75e 0b3d 7d39 1e3d ceb3 e8bc
000001f0: 24f8 773d d911 35bd 8086 0bbb 4f38 29bd
00000200: b9e5 233d 72ae e53b e5e0 18bd bfa4 e83c
00000210: 581a 41bb 3a7c 8dbc 8c06 a4bc f002 4e3d
00000220: 71fa 643d 0e7d 7d3d 0652 293d 18be 5f3d
00000230: 8a86 a9bc 239e 0f3c b378 ca3c 7d16 88bd
00000240: b058 e43c fc0f 1abd af04 92bc 1f9f 3a3d
00000250: f07a 6f3d cf08 473d c21f 693c fb95 953b
00000260: 609e 16bd 7d9f 7bbd d075 053c 7633 fdbc
00000270: ac24 8dbc 5605 693b 7381 27bd 94f2 693d
00000280: 6f0e a9bc 0616 91bc 2bac 76bd 56c5 6dbd
00000290: 93f9 78bc 111a 0abd e0df 8a3d 4ad2 253d
000002a0: 7afb edbc e025 4e3c f3c4 4c3d 9178 07bd
000002b0: 2c2d 88bc 07b1 3d3b e93a f53c dc19 3dbd
000002c0: 95f5 82bd 8968 083d 22d1 233c 5c5c 973a
000002d0: 2140 763c fd26 4f3d e1ba 7fbd 46aa 863b
000002e0: eebd 373d cb94 5bbd 25a3 8bbc f55a 223d
000002f0: c545 52bb 57c6 4dbd 1cef 9eba 06cf 28bd
00000300: 70ad a2bb 6f0d 0b3d 2957 a83c 07fe 38bc
00000310: ba8d 7d3d ce4c dc3c

lin3.weight f4 [112, 198]
0.029139997 0.0074204896 -0.01762858 0.048746977 0.0148266265 -0.014843747 -0.010713582 -0.05098167
-0.06345711 0.03061105 -0.015966006 -0.016647374 0.06680802 0.022162938 0.039064724 -0.0010257683
-0.030143205 0.0011632774 -0.030448314 0.06773895 0.05995816 0.05984281 -0.037642665 -0.0007868972
-0.015389447 -0.044498373 -0.03973173 0.03142576 -0.03572711 -0.026247732 -0.00051467173 0.0028897088
-0.014750503 -0.029262228 -0.010723056 -0.03553607 0.021404473 0.01209861 0.018878879 -0.010863159
0.047399677 0.0017230415 0.05179063 0.05887803 0.057715602 -0.062602594 0.025224056 -0.052168507
-0.002798382 -0.031758204 0.020532424 0.015725711 -0.0039726114 0.048520125 -0.0118951835 0.0011223617
-0.06152968 -0.04868404 0.012768064 -0.0465024 -0.050358452 0.022989562 0.024032867 -0.03952078
-0.048737176 0.018728193 0.029573131 0.01994289 0.06260593 -0.012937423 -0.017922126 0.056322835
-0.018735638 0.0011240263 0.00788727 0.035943434 -0.025515886 0.0127390865 -0.050098468 -0.015164944
-0.018587006 0.036785875 -0.047027566 0.033998474 0.026953347 0.052649383 -0.042242873 0.04656485
0.045485843 -0.058619037 -0.05394649 -0.05653571 -0.045437574 -0.035182495 0.06365845 0.06524996
-0.03713756 -0.03258531 0.033645883 0.009602607 -0.036425184 -0.035326798 -0.034162838 0.039219435
0.004100667 0.04641348 -0.06536224 -0.03750735 -0.004437279 -0.06465012 0.06231614 0.021912582
0.016257731 0.038439993 -0.027805557 0.058817152 0.0050894134 0.05351448 0.05938033 0.0066681425
0.020628346 -0.03789863 -0.0086831665 -0.021226062 0.0457529 0.03432385 -0.051487863 0.05762165
0.06322462 -0.010826996 0.0062370403 0.028741926 0.0050646006 0.03947398 0.04293676 0.013459373
-0.048314847 0.034900557 0.033105277 -0.008910339 0.0016723252 0.013804795 -0.0063655186 0.040175382
0.057432447 -0.05636011 -0.002122821 -0.024123557 -0.040041815 0.010250417 0.05458246 0.0061980253
0.032383706 0.055953246 -0.05673442 -0.013015065 -0.038152013 0.019370899 0.009025227 -0.0382541
-0.037855968 -0.044106074 0.040155023 -0.06357782 -0.00035717915 0.06033619 0.03638387 -0.05644226
-0.029688183 -0.041316327 0.009358796 0.053684928 -0.022097267 -0.033300955 0.021377567 -0.06196599
0.009894481 -0.012119951 -0.0035894138 -0.0631533 -0.030306334 0.04190569 -0.052335586 -0.02100056
0.06954152 -0.041768547 -0.0131632015 0.054907244 0.05098878 0.06639286 -0.03459768 0.06301209
-0.028278248 -0.05059957 0.059734374 0.04690694 0.06619807 -0.019679565 -0.008342241 -0.03552096
0.061294533 -0.0039033226 -0.01635164 0.028375467 0.022893932 -0.023005528 -0.042295758 -0.035639193
0.044699963 0.015130478 -0.05148714 0.055762816 0.040857248 0.042816855 0.0017187474 -0.055254675
-0.022483813 0.0058143632 0.055836193 -0.058610696 -0.028768864 0.014456033 0.03164634 0.006436533
-0.014297102 0.01882158 0.038568452 0.059400003 -0.008114029 -0.010137579 0.03540958 -0.0492856
-0.0064562666 -0.042042512 0.03160854 0.06056015 0.051479906 -0.041086666 -0.034906544 -0.017868193
0.043822493 -0.0551529 -0.04737558 -0.052510817 0.00042899878 0.024026085 -0.0012378824 0.013108554
0.0422969 0.050060168 0.056587324 -0.046357814 0.048127986 -0.010976022 -0.024218144 0.05575442
00000000: 01b7 ee3c 9427 f33b d069 90bc e9aa 473d
00000010: 61eb 723c 3033 73bc 0588 2fbc 28d2 50bd
00000020: cdf5 81bd 06c4 fa3c 24cb 82bc 1360 88bc
00000030: a5d2 883d 0d8f b53c 5502 203d 1373 86ba
00000040: e2ee f6bc 1d79 983a be6e f9bc b8ba 8a3d
00000050: b096 753d bc1d 753d 322f 1abd c747 4eba
00000060: 0524 7cbc ed43 36bd bdbd 22bd 4cb8 003d
00000070: 9756 12bd 7c05 d7bc 09eb 06ba 4561 3d3b
00000080: 18ac 71bc 57b7 efbc c2af 2fbc 458e 11bd
00000090: 6f58 af3c 4039 463c e1a7 9a3c 64fb 31bc
000000a0: 2a26 423d aed7 e13a 6922 543d 172a 713d
000000b0: 3267 6c3d ca35 80bd aea2 ce3c a5ae 55bd
000000c0: 0f65 37bb e414 02bd 9d33 a83c 35d3 803c
000000d0: ae2c 82bb 0abd 463d 04e4 42bc 361c 933a
000000e0: 8c06 7cbd ea68 47bd 2431 513c 4d79 3ebd
000000f0: aa44 4ebd 9b54 bc3c 93e0 c43c 8be0 21bd
00000100: a2a0 47bd de6b 993c 5a43 f23c 465f a33c
00000110: 8a37 803d 7cf7 53bc 6cd1 92bc c6b2 663d
00000120: 7b7b 99bc 1054 933a 9c39 013c 6c39 133d
00000130: b106 d1bc 9ab7 503c 0d34 4dbd 6376 78bc
00000140: c743 98bc c9ac 163d fa9f 40bd fc41 0b3d
00000150: 44cd dc3c e1a6 573d dd06 2dbd c9ba 3e3d
00000160: 5d4f 3a3d 841a 70bd fff6 5cbd fd91 67bd
00000170: c01c 3abd 851b 10bd 5d5f 823d c5a1 853d
00000180: 8e1d 18bd 2d78 05bd 44d0 093d 4154 1d3c
00000190: 9332 15bd d5b2 10bd 55ee 0bbd 8fa4 203d
000001a0: e35e 863b 101c 3e3d a3dc 85bd 4fa1 19bd
000001b0: 9866 91bb 4867 84bd 353f 7f3d 0482 b33c
000001c0: ef2e 853c 4173 1d3d 7bc8 e3bc 41ea 703d
000001d0: 18c5 a63b 0032 5b3d ca38 733d 6f80 da3b
000001e0: c7fc a83c 983b 1bbd d743 0ebc 47e2 adbc
000001f0: 6567 3b3d 2a97 0c3d f0e4 52bd ae04 6c3d
00000200: e97b 813d b663 31bc 1660 cc3b 3074 eb3c
00000210: f3f4 a53b 78af 213d 75de 2f3d b484 5c3c
00000220: cae5 45bd e3f3 0e3d 6699 073d acfc 11bc
00000230: ec31 db3a 822d 623c d795 d0bb f18e 243d
00000240: 493e 6b3d dcd9 66bd 071f 0bbb c49e c5bc
00000250: e302 24bd 5df1 273c dc91 5f3d ce18 cb3b
00000260: c7a4 043d 3b2f 653d 5a62 68bd 243d 55bc
00000270: 4945 1cbd b8af 9e3c 8cde 133c 55b0 1cbd
00000280: dc0e 1bbd 92a8 34bd 9879 243d 1735 82bd
00000290: c643 bbb9 1523 773d 4107 153d 0030 67bd
000002a0: a234 f3bc 4f3b 29bd a355 193c bae4 5b3d
000002b0: 5405 b5bc 9566 08bd 0220 af3c 0dd0 7dbd
000002c0: 761c 223c c292 46bc 5f3c 6bbb 8456 81bd
000002d0: fd44 f8bc 4da5 2b3d d75d 56bd 5e09 acbc
000002e0: c96b 8e3d 7f15 2bbd 78aa 57bc 6be6 603d
000002f0: 9cd9 503d fbf8 873d 4cb6 0dbd 7c0c 813d
00000300: c9a7 e7bc 7f41 4fbd 08ac 743d 7e21 403d
00000310: db92 873d 0a37 a1bc e5ad 08bc 6d7e 11bd
00000320: fa0f 7b3d e3ce 7fbb e0f3 85bc ab73 e83c
00000330: 0e8c bb3c 1776 bcbc 513e 2dbd 67fa 11bd
00000340: 4f17 373d d3e5 773c 2ee4 52bd 8d67 643d
00000350: ee59 273d ba60 2f3d 9847 e13a ba52 62bd
00000360: f92f b8bc 6a86 be3b 7eb4 643d c511 70bd
00000370: aeac ebbc ffd8 6c3c 989f 013d 8de9 d23b
00000380: 643e 6abc b72f 9a3c f4f9 1d3d 6b4d 733d
00000390: b4f0 04bc 1718 26bc a309 113d b3df 49bd
000003a0: 178f d3bb c534 2cbd f577 013d eb0d 783d
000003b0: 98dc 523d 7e4a 28bd 2afa 0ebd 5160 92bc
000003c0: 377f 333d 02e8 61bd e50c 42bd 9515 57bd
000003d0: 3eeb e039 5ad2 c43c 7140 a2ba 43c5 563c
000003e0: 843f 2d3d e40b 4d3d 1cc8 673d b1e1 3dbd
000003f0: da21 453d c6d4 33bc 2165 c6bc bf5e 643d

lin3.bias f4 [112]
0.04370958 0.033121094 0.0066220923 -0.028098673 0.024838 -0.047454536 0.054969326 -0.053451676
-0.057208132 -0.015171157 -0.06364092 -0.05109881 -0.06236377 -0.042608347 0.03085536 -0.058929652
-0.0045601535 0.0002861398 -0.05863539 0.061597276 -0.022920059 -0.010190174 -0.034998186 0.018989203
0.048739083 0.06411498 -0.03772918 0.041648407 0.008611929 -0.037950084 -0.02037052 0.05292252
0.023799496 0.019894503 0.022606963 0.021342492 0.012985712 0.067949876 -0.049978495 0.045348305
0.057518333 -0.017280867 -0.021276627 0.06741935 -0.039077535 -0.047060154 0.0074578095 -0.052160937
0.0046382183 0.015858697 -0.0341607 0.017665438 0.07431132 -0.008788298 -0.037920862 0.025547909
0.024343768 -0.067452006 -0.06699287 0.063229784 -0.0010138805 -0.00956961 -0.052009966 -0.021231944
-0.061156344 0.03750884 -0.010493982 0.052935757 0.040058568 0.013539045 -0.029256677 0.0021172045
0.054967903 -0.062868446 -0.009047641 0.040659472 -0.018997367 -0.06809914 -0.06797445 0.072126925
0.04300034 0.0750799 -0.021399982 0.03894723 -0.03977074 0.006342641 -0.034965325 0.050045714
0.06276069 0.0052335253 0.049483158 -0.019090489 0.009087939 0.054585177 0.06610954 0.0548423
0.032603003 -0.054577675 0.023275908 0.009642174 0.04712157 0.04813712 0.034686826 -0.0626802
0.022806987 0.050617665 -0.025809504 -0.03584501 0.006972386 -0.024935136 -0.022295067 -0.033280797
00000000: d108 333d fca9 073d 23fe d83b 302f e6bc
00000010: 1079 cb3c b05f 42bd 8427 613d 25f0 5abd
00000020: 1353 6abd 7290 78bc 2c56 82bd fc4c 51bd
00000030: 2771 7fbd 1786 2ebd 61c4 fc3c 3860 71bd
00000040: 576d 95bb 0905 9639 aa2b 70bd 6d4d 7c3d
00000050: d9c2 bbbc b0f4 26bc 425a 0fbd 3f8f 9b3c
00000060: a2a2 473d b74e 833d ea89 1abd 8597 2a3d
00000070: 0c19 0d3c 8c71 1bbd 14e0 a6bc 49c5 583d
00000080: 29f7 c23c ccf9 a23c 3d32 b93c 73d6 ae3c
00000090: 06c2 543c 4e29 8b3d 40b6 4cbd 25bf 393d
000000a0: 5898 6b3d 9b90 8dbc 524c aebc 2813 8a3d
000000b0: c40f 20bd 26c2 40bd a460 f43b b5a6 55bd
000000c0: 32fc 973b 19ea 813c 17ec 0bbd 1cb7 903c
000000d0: 8930 983d cbfc 0fbc e852 1bbd d949 d13c
000000e0: 956c c73c 4724 8abd 8f33 89bd 9e7e 813d
000000f0: 2fe4 84ba dac9 1cbc 6708 55bd 9dee adbc
00000100: 137f 7abd dfa2 193d f3ee 2bbc 2ad3 583d
00000110: 7414 243d dfd2 5d3c b3ab efbc ccc0 0a3b
00000120: 0626 613d 2cc1 80bd 8f3c 14bc 8c8a 263d
00000130: 5ea0 9bbc 9077 8bbd 3036 8bbd 48b7 933d
00000140: 2021 303d 7ec3 993d 044f afbc 2187 1f3d
00000150: a5e6 22bd eed5 cf3b cd37 0fbd bcfc 4c3d
00000160: ad88 803d fe7d ab3b daae 4a3d a863 9cbc
00000170: 94e5 143c b594 5f3d 7064 873d 52a2 603d
00000180: ba8a 053d d78c 5fbd 1ead be3c 35fa 1d3c
00000190: 8c02 413d 6e2b 453d c613 0e3d 7a5e 80bd
000001a0: b8d5 ba3c 7854 4f3d 746e d3bc 38d2 12bd
000001b0: 9d78 e43b c544 ccbc 25a4 b6bc 7251 08bd

lin4.weight f4 [1, 112]
0.06628128 0.038588833 -0.07016555 0.02475129 0.0063132336 -0.06092086 0.02802529 -0.05377692
-0.028672861 -0.030611599 0.07209076 0.16833565 -0.028083337 0.06967475 0.043896098 -0.01605494
-0.06364664 -0.009382881 0.11334398 -0.1301145 -0.03202919 0.10501135 0.12422975 0.03446897
0.039566588 -0.09916455 -0.084591 0.0012629821 -0.059987687 0.0168287 0.015422537 -0.050254647
-0.020721793 -0.042252034 -0.11216062 0.006090719 -0.014229001 -0.032894265 0.004570524 -0.12511845
0.03709763 0.10061409 -0.03390379 -0.12583567 -0.06488509 -0.050052308 -0.0028926919 0.09448251
0.02726701 -0.034435812 -0.08903882 -0.03423074 -0.109886065 0.04954436 0.016325641 0.016886437
-0.06690129 0.03343445 0.032404944 -0.05079421 -0.064567804 0.08729468 0.035880405 -0.06690468
0.13978298 0.03565167 -0.00031544804 0.022201935 0.014394495 0.03569022 0.022101259 0.03800485
0.0183954 0.00806606 0.12955867 0.104392335 -0.075527556 0.15246153 -0.0026081607 -0.100404866
-0.014513 -0.12827978 0.009611483 -0.049637623 0.14658682 0.028383639 -0.05215367 -0.07719064
0.016283177 0.013364581 -0.06825179 0.0023342916 0.04232944 -0.03547147 -0.07675037 -0.10457461
-0.030084446 -0.035467647 -0.055301912 0.08215027 0.10548031 0.010642 -0.1340339 0.07975635
0.051097576 0.092588 -0.10246524 -0.057259347 0.008142722 0.09490191 0.14781913 0.091666736
00000000: 7bbe 873d 530f 1e3d f5b2 8fbd 38c3 ca3c
00000010: 3edf ce3b 2788 79bd 4b95 e53c 3045 5cbd
00000020: 59e3 eabc 2dc5 fabc 52a4 933d 2e60 2c3e
00000030: 070f e6bc a3b1 8e3d 65cc 333d a685 83bc
00000040: 2b59 82bd a8ba 19bc e320 e83d bc3c 05be
00000050: 0a31 03bd 3110 d73d 2b6c fe3d 562f 0d3d
00000060: 9310 223d c916 cbbd 0c3e adbd a68a a53a
00000070: a6b5 75bd 58dc 893c cfae 7c3c d1d7 4dbd
00000080: c0c0 a9bc 7810 2dbd 78b4 e5bd a794 c73b
00000090: c120 69bc 23bc 06bd 56c4 953b 0d1f 00be
000000a0: aff3 173d c30e ce3d b3de 0abd 11db 00be
000000b0: 79e2 84bd a603 4dbd 5193 3dbb 0c80 c13d
000000c0: 115f df3c 910c 0dbd fc59 b6bd 8835 0cbd
000000d0: f20b e1bd 07ef 4a3d 5abd 853c 6d55 8a3c
000000e0: 8b03 89bd 90f2 083d 0cbb 043d 970d 50bd
000000f0: 203c 84bd 8ec7 b23d 55f7 123d 5205 89bd
00000100: 4523 0f3e 7c07 123d b862 a5b9 d5e0 b53c
00000110: e3d6 6b3c e82f 123d b30d b53c f9aa 1b3d
00000120: f3b1 963c 8227 043c 07ab 043e a6cb d53d
00000130: 31ae 9abd e01e 1c3e aded 2abb 11a1 cdbd
00000140: efc7 6dbc c65b 03be 7b79 1d3c d250 4bbd
00000150: db1a 163e ce84 e83c 169f 55bd 2016 9ebd
00000160: 4c64 853c 1ef7 5a3c 98c7 8bbd eafa 183b
00000170: a361 2d3d 884a 11bd 4c2f 9dbd 372b d6bd
00000180: a873 f6bc 8646 11bd 4284 62bd 673e a83d
00000190: 1006 d83d c85b 2e3c 2f40 09be 4c57 a33d
000001a0: b14b 513d c79e bd3d 4cd9 d1bd c788 6abd
000001b0: 0d69 053c ef5b c23d e65d 173e c5bb bb3d
