saved_models/s.pt (torch, 66364 bytes, 23 tensors)

thing f4 [94]
0.001 0.001 0.001 0.001 0.001 0.001 0.001 0.001
0.001 0.001 0.001 0.001 0.001 0.001 0.001 0.001
0.001 0.001 0.001 0.001 0.001 0.001 0.001 0.001
0.001 0.001 0.001 0.001 0.001 0.001 0.001 0.001
0.001 0.001 0.001 0.001 0.001 0.001 0.001 0.001
0.001 0.001 0.001 0.001 0.001 0.001 0.001 0.001
0.001 0.001 0.001 0.001 0.001 0.001 0.001 0.001
0.001 0.001 0.001 0.001 0.001 0.001 0.001 0.001
0.001 0.001 0.001 0.001 0.001 0.001 0.001 0.001
0.001 0.001 0.001 0.001 0.001 0.001 0.001 0.001
0.001 0.001 0.001 0.001 0.001 0.001 0.001 0.001
0.001 0.001 0.001 0.001 0.001 0.001
00000000: 6f12 833a 6f12 833a 6f12 833a 6f12 833a
00000010: 6f12 833a 6f12 833a 6f12 833a 6f12 833a
00000020: 6f12 833a 6f12 833a 6f12 833a 6f12 833a
00000030: 6f12 833a 6f12 833a 6f12 833a 6f12 833a
00000040: 6f12 833a 6f12 833a 6f12 833a 6f12 833a
00000050: 6f12 833a 6f12 833a 6f12 833a 6f12 833a
00000060: 6f12 833a 6f12 833a 6f12 833a 6f12 833a
00000070: 6f12 833a 6f12 833a 6f12 833a 6f12 833a
00000080: 6f12 833a 6f12 833a 6f12 833a 6f12 833a
00000090: 6f12 833a 6f12 833a 6f12 833a 6f12 833a
000000a0: 6f12 833a 6f12 833a 6f12 833a 6f12 833a
000000b0: 6f12 833a 6f12 833a 6f12 833a 6f12 833a
000000c0: 6f12 833a 6f12 833a 6f12 833a 6f12 833a
000000d0: 6f12 833a 6f12 833a 6f12 833a 6f12 833a
000000e0: 6f12 833a 6f12 833a 6f12 833a 6f12 833a
000000f0: 6f12 833a 6f12 833a 6f12 833a 6f12 833a
00000100: 6f12 833a 6f12 833a 6f12 833a 6f12 833a
00000110: 6f12 833a 6f12 833a 6f12 833a 6f12 833a
00000120: 6f12 833a 6f12 833a 6f12 833a 6f12 833a
00000130: 6f12 833a 6f12 833a 6f12 833a 6f12 833a
00000140: 6f12 833a 6f12 833a 6f12 833a 6f12 833a
00000150: 6f12 833a 6f12 833a 6f12 833a 6f12 833a
00000160: 6f12 833a 6f12 833a 6f12 833a 6f12 833a
00000170: 6f12 833a 6f12 833a

fullyCon1.sigma_fc_weight f4 [1, 31]
-10.379198 -8.685162 -7.128116 -11.208353 -10.209159 -3.4355843 -2.2581327 -5.8419805
-8.215188 -8.632795 -3.6300228 -4.97016 -2.8927026 -2.7996738 -2.5040276 -5.7763476
-3.955764 -7.017183 -4.5655084 -5.377427 -10.726689 -5.915665 -9.714298 -3.124391
-6.787492 -4.2808847 -5.6348515 -8.175925 -5.0279536 -3.3567019 -6.513137
00000000: 3211 26c1 6cf6 0ac1 8719 e4c0 6a55 33c1
00000010: b758 23c1 9de0 5bc0 3f85 10c0 81f1 bac0
00000020: 6971 03c1 ee1f 0ac1 4b52 68c0 8d0b 9fc0
00000030: 0a22 39c0 db2d 33c0 fd41 20c0 d7d7 b8c0
00000040: 3d2b 7dc0 c38c e0c0 a518 92c0 e213 acc0
00000050: 85a0 2bc1 214d bdc0 c46d 1bc1 06f6 47c0
00000060: 2233 d9c0 02fd 88c0 b450 b4c0 97d0 02c1
00000070: ffe4 a0c0 34d4 56c0 9e6b d0c0

fullyCon1.mean_fc.weight f4 [31, 12]
-0.034965765 -0.021050991 -0.025410112 -0.006862961 0.079633206 0.10037954 0.13046226 -0.029646728
-0.04594041 0.22138391 0.073488005 -0.049129114 -0.2182431 -0.0056866184 -0.09136059 -0.14739512
0.03649261 0.110270396 0.1724976 -0.017612193 -0.073159054 0.18036185 0.08701998 0.00027951048
0.090167135 -0.03346315 -0.08162018 0.11887876 -0.040122863 -0.025433885 0.2625641 -0.006062624
-0.11551766 -0.0699176 -0.04406765 0.004677611 -0.104615204 0.09181052 -0.10867218 0.032792322
-0.051140554 0.04350156 -0.003505591 -0.1320845 -0.01992501 -0.078995086 -0.036542997 -0.048465572
-0.13948607 -0.0012856182 -0.03848131 0.09619869 -0.026135193 -0.09467731 -0.042533796 0.082832776
0.105436176 -0.14749706 0.046456937 0.011731521 0.057408456 -0.011159972 0.1071952 -0.053080656
-0.051170733 -0.0061300555 -0.08876931 -0.11681199 0.0395196 0.11914044 -0.09889436 -0.018026344
-0.13563506 0.23865618 -0.05250975 0.07929521 0.105997376 0.022874115 0.023966888 -0.08491502
-0.0068466 -0.12359412 -0.028626878 0.02294327 -0.022002857 0.050341878 -0.03528369 -0.036359508
0.11120736 0.09274859 0.18383826 -0.0780843 0.057814088 0.02721463 -0.18468118 0.10389498
-0.059257325 0.029907862 0.04448556 0.0049682166 -0.034587614 0.021312473 -0.07935007 0.017415157
-0.081721954 0.0715701 0.10100131 0.014662414 -0.00046088462 -0.05875831 0.06798604 0.02742476
-0.11430272 0.017813109 0.08711748 0.07834654 -0.013384816 0.1482029 -0.118410945 -0.03125544
0.03926072 -0.037031107 -0.02295 0.08576682 -0.05502622 0.024101725 0.078419484 -0.08341653
0.00030838954 -0.0026661619 0.14364965 -0.029172426 0.119596116 0.072257414 -0.07595012 0.1101891
0.1430622 -0.022833914 0.016495572 -0.025984842 -0.018451143 0.1397827 -0.10141306 0.061423283
-0.22876646 -0.00970506 -0.11755728 0.026313525 0.061733346 -0.08683274 0.01870529 0.18026495
-0.021287674 0.06767403 0.01448763 0.04897334 -0.052388873 -0.021815179 0.002184951 -0.0071288436
-0.08260041 0.020821366 0.19861373 -0.045609873 -0.0861926 -0.039045677 -0.11599005 -0.081980824
0.19827764 -0.05038308 0.29171804 -0.05680204 0.050165385 -0.03973797 -0.075033516 0.040960804
0.098094024 0.012682137 0.039594 -0.011710002 0.007849183 0.08392672 0.06950604 -0.04590756
0.040280156 -0.02336673 0.12891617 0.004870275 0.01947845 -0.12931919 -0.12672102 -0.09341039
0.1497169 -0.06645289 0.13145915 0.011601031 -0.16796188 -0.041047595 -0.0019749277 -0.08846802
0.09003152 0.051846296 0.12249047 -0.081662945 -0.13019286 -0.060775 -0.05964222 0.07825831
0.039080117 -0.0199012 0.056635536 -0.05722578 0.059377138 0.01106269 0.20805916 0.037492123
0.04222723 -0.017228479 -0.1367949 0.042596165 0.015988605 0.10221344 -0.17044657 0.10384379
0.01729412 0.035704184 0.07019561 0.05469237 -0.017277958 0.009208986 0.09668586 -0.048712242
0.0009330234 -0.040108707 -0.04661832 0.042887654 -0.06830143 0.21328175 -0.04798236 0.06961619
0.1045556 0.019149883 0.040859167 0.07163998 -0.012666277 -0.022983506 -0.05233015 0.12425032
-0.088260576 -0.07111628 0.047502387 -0.032028064 0.060736988 -0.0031028844 0.0022143289 0.19346157
00000000: 4338 0fbd 2173 acbc de28 d0bc b1e2 e0bb
00000010: bc16 a33d ca93 cd3d e697 053e b2dd f2bc
00000020: 032c 3cbd 77b2 623e e180 963d 9c3b 49bd
00000030: 1f7b 5fbe d056 babb 431b bbbd bfee 16be
00000040: 4679 153d 72d5 e13d 36a3 303e 7247 90bc
00000050: 6ad4 95bd c7b0 383e 8837 b23d 438b 9239
00000060: 8ca9 b83d a810 09bd 7b28 a7bd b576 f33d
00000070: df57 24bd b95a d0bc cd6e 863e faa8 c6bb
00000080: 8694 ecbd f530 8fbd 4880 34bd a546 993b
00000090: 7f40 d6bd 2707 bc3d 858f debd 3e51 063d
000000a0: c278 51bd b12e 323d 0fbe 65bb 2941 07be
000000b0: c639 a3bc 2dc8 a1bd 1cae 15bd d683 46bd
000000c0: 70d5 0ebe 3082 a8ba 949e 1dbd d203 c53d
000000d0: 7919 d6bc 2de6 c1bd eb37 2ebd 3ba4 a93d
000000e0: ecee d73d 7809 17be a149 3e3d 9135 403c
000000f0: 2125 6b3d 51d8 36bc 2889 db3d 1a6b 59bd
00000100: 6798 51bd a2de c8bb afcc b5bd 203b efbd
00000110: 4edf 213d e7ff f33d 2089 cabd fcab 93bc
00000120: ebe3 0abe 4962 743e 7714 57bd 8765 a23d
00000130: 2715 d93d 7f62 bb3c 3556 c43c ede7 adbd
00000140: 7259 e0bb ea1e fdbd ea82 eabc 86f3 bb3c
00000150: 563f b4bc 4933 4e3d a185 10bd b5ed 14bd
00000160: afc0 e33d f9f2 bd3d 1940 3c3e a9ea 9fbd
00000170: 77ce 6c3d 37f1 de3c 101d 3dbe e4c6 d43d
00000180: cfb7 72bd 5501 f53c 7e36 363d 6ccc a23b
00000190: beab 0dbd 7f97 ae3c 4a82 a2bd 3baa 8e3c
000001a0: d75d a7bd 5893 923d c6d9 ce3d 9f3a 703c
000001b0: e3a2 f1b9 8eac 70bd 443c 8b3d e4a9 e03c
000001c0: 8b17 eabd ccec 913c a66a b23d 2774 a03d
000001d0: fd4b 5bbc 80c2 173e 7081 f2bd b405 00bd
000001e0: d9cf 203d eead 17bd a301 bcbc 84a6 af3d
000001f0: 2c63 61bd fb70 c53c 659a a03d 49d6 aabd
00000200: 58af a139 c6ba 2ebb e518 133e 03fb eebc
00000210: cfee f43d b2fb 933d bd8b 9bbd d3aa e13d
00000220: e67e 123e 300e bbbc b921 873c 2ade d4bc
00000230: da26 97bc 3223 0f3e a7b1 cfbd fb96 7b3d
00000240: c141 6abe f901 1fbc dfc1 f0bd 768f d73c
00000250: 1bdc 7c3d 5dd5 b1bd d63b 993c 6097 383e
00000260: 7d63 aebc af98 8a3d 865d 6d3c 4598 483d
00000270: b795 56bd bfb5 b2bc 6531 0f3b 1399 e9bb
00000280: 672a a9bd 9291 aa3c 6661 4b3e 6bd1 3abd
00000290: bf85 b0bd 5cee 1fbd 318c edbd 90e5 a7bd
000002a0: 4b09 4b3e 7d5e 4ebd 115c 953e 42a9 68bd
000002b0: 387a 4d3d 48c4 22bd 2cab 99bd 84c6 273d
000002c0: 85e5 c83d bdc8 4f3c 512d 223d 4fdb 3fbc
000002d0: dc99 003c c6e1 ab3d 2f59 8e3d 9109 3cbd
000002e0: cefc 243d 966b bfbc 9a02 043e d496 9f3b
000002f0: 4591 9f3c 406c 04be 28c3 01be f24d bfbd
00000300: 634f 193e 7418 88bd 3a9d 063e 4012 3e3c
00000310: 33fe 2bbe 8621 28bd ca6d 01bb b92e b5bd
00000320: 7262 b83d c85c 543d 49dc fa3d e73e a7bd
00000330: 4751 05be 35ef 78bd 674b 74bd e545 a03d
00000340: 7912 203d d707 a3bc aafa 673d 9465 6abd
00000350: 7135 733d 4940 353c 760d 553e 5791 193d
00000360: 76f6 2c3d bd22 8dbc f613 0cbe 5179 2e3d
00000370: 89fa 823c 4855 d13d 8c89 2ebe 0eac d43d
00000380: 66ac 8d3c 8d3e 123d b7c2 8f3d 1b05 603d
00000390: 818a 8dbc 49e1 163c 3c03 c63d 7d86 47bd
000003a0: 2496 743a 0749 24bd daf2 3ebd f7aa 2f3d
000003b0: 9fe1 8bbd 8866 5a3e 2789 44bd ef92 8e3d
000003c0: 3f21 d63d 37e0 9c3c f15b 273d fbb7 923d
000003d0: 3786 4fbc e847 bcbc 2458 56bd f476 fe3d
000003e0: f6c1 b4bd 6aa5 91bd dd91 423d dc2f 03bd
000003f0: 59c7 783d c359 4bbb 461e 113b ca1a 463e

fullyCon1.mean_fc.bias f4 [31]
0.0009717949 0.00097179424 0.00097179395 0.0009717947 0.0009717948 0.00097179366 0.000971795 0.0009717939
0.000971794 0.0009717936 0.00097179244 0.0009717925 0.00097179477 0.0009717962 0.0009717941 0.00097179593
0.00097179465 0.00097179506 0.0009717941 0.0009717934 0.00097179355 0.000971794 0.00097179326 0.0009717938
0.00097179506 0.00097179424 0.0009717946 0.000971794 0.0009717919 0.00097179436 0.0009717915
00000000: 0dc0 7e3a 02c0 7e3a fdbf 7e3a 0ac0 7e3a
00000010: 0cc0 7e3a f8bf 7e3a 0fc0 7e3a fcbf 7e3a
00000020: febf 7e3a f7bf 7e3a e3bf 7e3a e4bf 7e3a
00000030: 0bc0 7e3a 24c0 7e3a 00c0 7e3a 1fc0 7e3a
00000040: 09c0 7e3a 10c0 7e3a 00c0 7e3a f3bf 7e3a
00000050: f6bf 7e3a febf 7e3a f1bf 7e3a fabf 7e3a
00000060: 10c0 7e3a 02c0 7e3a 08c0 7e3a febf 7e3a
00000070: dabf 7e3a 04c0 7e3a d3bf 7e3a

fullyCon2.sigma_fc_weight f4 [1, 93]
-10.858791 -8.85366 -6.662278 -9.060955 -11.412188 -7.5371604 -2.4250047 -5.3738937
-5.119407 -3.188822 -5.5429034 -10.216393 -2.3482823 -11.2206 -9.853241 -9.964784
-8.03824 -7.2827387 -8.961437 -9.978653 -3.3838956 -7.7705474 -8.667453 -3.3504057
-4.4769135 -3.9018686 -3.1244926 -6.9543395 -9.52121 -9.368182 -3.7434816 -2.7459042
-2.5676184 -4.8835125 -4.5942073 -11.420128 -6.5926948 -10.331122 -2.3253326 -9.01567
-7.804178 -5.5939617 -6.1525784 -7.440053 -4.752698 -4.8492565 -7.40113 -4.6743016
-9.154221 -7.347422 -5.9326043 -6.36604 -7.5502415 -10.703991 -11.174153 -10.94211
-9.535521 -5.576283 -7.7956038 -7.860791 -7.3157973 -9.600656 -9.974879 -2.7819254
-6.856401 -3.6286106 -7.209128 -5.956444 -11.035598 -8.636387 -6.9175825 -8.175507
-7.648549 -9.478481 -2.1913552 -6.4080553 -3.0727837 -5.703712 -11.369224 -10.623562
-3.4517813 -5.3201194 -5.4154563 -10.9890175 -6.1374984 -6.66193 -8.189265 -10.520173
-4.515103 -3.159432 -3.5527742 -9.848312 -10.975404
00000000: 9cbd 2dc1 97a8 0dc1 6231 d5c0 acf9 10c1
00000010: 5298 36c1 6b30 f1c0 4733 1bc0 f0f6 abc0
00000020: 2fd2 a3c0 a915 4cc0 775f b1c0 5976 23c1
00000030: 424a 16c0 9487 33c1 e0a6 1dc1 c16f 1fc1
00000040: a29c 00c1 320c e9c0 0c62 0fc1 90a8 1fc1
00000050: bf91 58c0 53a8 f8c0 e3ad 0ac1 0c6d 56c0
00000060: e042 8fc0 37b8 79c0 b0f7 47c0 f389 dec0
00000070: e056 18c1 13e4 15c1 3495 6fc0 e5bc 2fc0
00000080: dc53 24c0 bc45 9cc0 bf03 93c0 d8b8 36c1
00000090: 5bf7 d2c0 474c 25c1 40d2 14c0 2f40 10c1
000000a0: d4bb f9c0 bc01 b3c0 ece1 c4c0 ea14 eec0
000000b0: 1a16 98c0 1c2d 9bc0 0fd6 ecc0 e193 95c0
000000c0: b077 12c1 151e ebc0 e5d7 bdc0 9ab6 cbc0
000000d0: 949b f1c0 8c43 2bc1 55c9 32c1 e212 2fc1
000000e0: 7e91 18c1 e970 b2c0 9675 f9c0 9a8b fbc0
000000f0: 031b eac0 499c 19c1 1b99 1fc1 110b 32c0
00000100: a367 dbc0 283b 68c0 2db1 e6c0 309b bec0
00000110: cf91 30c1 a42e 0ac1 d65c ddc0 e0ce 02c1
00000120: eac0 f4c0 dca7 17c1 2a3f 0cc0 ca0e cdc0
00000130: 7da8 44c0 cf84 b6c0 57e8 35c1 1cfa 29c1
00000140: fce9 5cc0 6b3e aac0 6b4b adc0 04d3 2fc1
00000150: 6366 c4c0 882e d5c0 3b07 03c1 a152 28c1
00000160: b97b 90c0 2234 4ac0 a760 63c0 b092 1dc1
00000170: 419b 2fc1

fullyCon2.mean_fc.weight f4 [93, 31]
-0.02881788 -0.05277292 -0.07776026 0.00925844 0.21133982 0.05616579 -0.0115872035 0.13880864
0.05842016 0.019362403 0.00016554678 -0.04536365 -0.09749372 0.033270538 -0.09308996 0.19471397
-0.06748182 0.07551662 0.16266923 0.05232375 -0.007027802 -0.08528916 0.026371686 -0.0063205454
0.08477044 -0.1357505 -0.001206198 -0.12409704 0.15845408 0.032059412 -0.07975654 0.03324254
0.047636513 -0.044384647 0.07505812 0.01847797 -0.043886174 -0.05377145 0.021391649 0.149476
-0.17830507 -0.06504065 -0.33527425 -0.18611234 -0.05678424 -0.0098182075 0.09728432 -0.008180327
-0.15404986 -0.12550475 -0.062127564 -0.10086477 0.011027349 -0.038395327 -0.036455683 0.10857226
0.11071885 -0.036296465 -0.002887221 -0.08276783 0.018892014 -0.1307265 0.06304323 0.012584203
-0.06994263 0.14164026 0.16596667 0.06294017 0.099178664 -0.041682422 0.010357499 0.12744704
-0.034805525 -0.119189195 -0.044771846 -0.083024755 0.018002931 -0.20094033 -0.025226692 -0.028391842
-0.06520305 -0.03624204 -0.10057611 0.058008876 0.032869227 0.038487196 -0.053359963 -0.01305396
0.027528811 -0.06525075 -0.1020169 0.061261084 -0.078402966 -0.13208146 0.011129616 0.07250007
0.047450934 -0.097125806 -0.05925824 0.03850457 0.15598007 -0.09077581 -0.042693764 -0.0092389025
-0.047901716 0.0065454985 -0.008717006 -0.13143985 0.04300431 -0.19330671 0.03146253 -0.1958561
0.025563695 0.01778728 0.13124661 0.20008145 -0.1094821 -0.06850854 0.038379382 0.21603179
0.024456516 0.029831227 0.05081357 -0.018269897 4.366354e-06 -0.04052888 -0.16895881 0.0040791617
0.0540088 -0.17711294 0.0012379424 -0.14323604 -0.11292746 -0.070285104 -0.038064655 -0.10895131
0.13553849 0.0005106035 -0.040490158 -0.19071567 0.08674613 0.029589558 0.023408374 0.104543515
-0.052294336 -7.481406e-06 -0.051844962 0.03820903 -2.446284e-06 0.09782757 -0.007027827 0.0056506125
0.0021357134 0.10723179 2.3390096e-06 -0.0620067 0.06422638 0.028720068 0.07985343 -0.06862058
0.017501693 0.03157462 -0.16646342 -0.001169913 -0.03914215 -0.14168034 0.04868474 -0.08253654
0.12387738 0.22686233 -0.042237066 -0.03165199 -0.2239753 0.06972359 0.15136746 -0.03240136
9.381944e-06 0.025252098 0.094103724 0.08164579 0.07546824 0.09585803 -0.054131184 -0.05876837
-0.06845055 0.14882891 0.09936475 0.006510456 -0.12831704 0.11452673 0.10734071 -0.00851822
-0.09619471 -7.685331e-06 0.15183151 0.015290692 0.10519716 0.18394704 0.074206464 -0.14984433
-0.11646709 0.06823326 1.0164835e-05 -0.054706726 -0.04229948 0.00027847546 -7.6689985e-06 0.054243132
0.006597315 -0.19300085 -0.043205544 -0.0011534826 -0.046889473 0.061130993 -0.044979274 -0.2230083
0.13732973 0.1388846 0.14783105 0.112259515 -0.028028997 0.039480623 -0.11423481 0.19589542
-0.0046187774 0.12251141 0.10414079 -0.119173475 -0.08507706 0.07124026 -0.03939324 0.06988871
-0.073748775 -0.06713562 -4.394221e-06 0.08802676 -0.01642512 -0.17647672 -1.4715876e-06 0.010076258
-0.10384542 -0.07248372 -0.06810005 -0.11111321 -0.12840703 -0.16947192 0.11541318 0.10628223
0.06328405 0.031306036 0.14625971 -0.13572559 0.021944271 0.03763551 0.0016390381 0.032928873
00000000: 7a13 ecbc 6b28 58bd c540 9fbd b6b0 173c
00000010: 7769 583e 190e 663d 41d8 3dbc da23 0e3e
00000020: fa49 6f3d e79d 9e3c a096 2d39 3ccf 39bd
00000030: caaa c7bd b046 083d f3a5 bebd 1963 473e
00000040: e933 8abd 75a8 9a3d c392 263e 6e51 563d
00000050: 7a49 e6bb 15ac aebd 6f09 d83c 941c cfbb
00000060: 209c ad3d 2e02 0bbe 4a19 9eba 9726 febd
00000070: c941 223e bb50 033d 6657 a3bd 5429 083d
00000080: 811e 433d adcc 35bd 12b8 993d 1d5f 973c
00000090: fdc1 33bd 743f 5cbd 8a3d af3c 3d10 193e
000000a0: 9b95 36be 0834 85bd 11a9 abbe 3c94 3ebe
000000b0: 9796 68bd 8cdc 20bc 003d c73d c706 06bc
000000c0: 3fbf 1dbe 5184 00be 7979 7ebd 3092 cebd
000000d0: 0eac 343c 6b44 1dbd 8e52 15bd 225b de3d
000000e0: 90c0 e23d 9aab 14bd 8837 3dbb 2e82 a9bd
000000f0: 6dc3 9a3c 2bdd 05be cf1c 813d f92d 4e3c
00000100: 153e 8fbd 250a 113e 2bf3 293e c7e6 803d
00000110: 2f1e cb3d 30bb 2abd 80b2 293c 7a81 023e
00000120: 3d90 0ebd 7719 f4bd af62 37bd e208 aabd
00000130: e27a 933c 4dc3 4dbe 35a8 cebc 0296 e8bc
00000140: 2d89 85bd 8972 14bd d9fa cdbd b79a 6d3d
00000150: e2a1 063d c0a4 1d3d fa8f 5abd 47e0 55bc
00000160: 1a84 e13c 2fa2 85bd 3dee d0bd e7ec 7a3d
00000170: bc91 a0bd 5d40 07be fe58 363c eb7a 943d
00000180: e95b 423d e5e9 c6bd c5b8 72bd f8b6 1d3d
00000190: 3db9 1f3e abe8 b9bd a8df 2ebd c45e 17bc
000001a0: 9734 44bd 9f7b d63b c6d1 0ebc 2b98 06be
000001b0: 4a25 303d 32f2 45be dbde 003d 808e 48be
000001c0: f46a d13c a1b6 913c 8365 063e 27e2 4c3e
000001d0: 2738 e0bd 354e 8cbd b333 1d3d 7037 5d3e
000001e0: 0859 c83c 9e60 f43c e421 503d c0aa 95bc
000001f0: b282 9236 9c01 26bd 8a03 2dbe 7daa 853b
00000200: 5538 5d3d 185d 35be 7442 a23a 78ac 12be
00000210: 8346 e7bd a3f1 8fbd afe9 1bbd dd21 dfbd
00000220: 9aca 0a3e 05da 053a 02d9 25bd f84a 43be
00000230: f4a7 b13d cd65 f23c ebc2 bf3c e91a d63d
00000240: 9632 56bd ca08 fbb6 625b 54bd 1281 1c3d
00000250: d72a 24b6 d259 c83d b049 e6bb c628 b93b
00000260: 53f7 0b3b 579c db3d e1f7 1c36 bdfa 7dbd
00000270: 1f89 833d 5946 eb3c 328a a33d f288 8cbd
00000280: b65f 8f3c 6454 013d 6375 2abe c457 99ba
00000290: 8553 20bd a714 11be a669 473d eb08 a9bd
000002a0: 6cb3 fd3d 994e 683e c600 2dbd 84a5 01bd
000002b0: c859 65be 3ecb 8e3d 1200 1b3e 4ab7 04bd
000002c0: 2567 1d37 7ddd ce3c 74b9 c03d e835 a73d
000002d0: 188f 9a3d 3751 c43d a9b8 5dbd 1ab7 70bd
000002e0: cd2f 8cbd 9b66 183e bf7f cb3d aa55 d53b
000002f0: 8b65 03be fd8c ea3d 72d5 db3d 0190 0bbc
00000300: bb01 c5bd 3ff0 00b7 b879 1b3e d085 7a3c
00000310: 9c71 d73d 9d5c 3c3e 8ff9 973d cb70 19be
00000320: 4c86 eebd e1bd 8b3d a289 2a37 2914 60bd
00000330: 3842 2dbd 5800 9239 19aa 00b7 0c2e 5e3d
00000340: 4a2e d83b 04a2 45be 4cf8 30bd 7430 97ba
00000350: 2d0f 40bd 7e64 7a3d 303c 38bd 4a5c 64be
00000360: 2aa0 0c3e c437 0e3e 0661 173e 51e8 e53d
00000370: 119d e5bc 6fb6 213d f1f3 e9bd cf98 483e
00000380: 1d59 97bb 43e7 fa3d c447 d53d 3911 f4bd
00000390: e23c aebd 6ae6 913d ce5a 21bd d021 8f3d
000003a0: 9909 97bd 667e 89bd 1272 93b6 6047 b43d
000003b0: f98d 86bc 50b6 34be 5d83 c5b5 e416 253c
000003c0: e8ac d4bd 5872 94bd 0a78 8bbd 538f e3bd
000003d0: 227d 03be 0c8a 2dbe bf5d ec3d 7faa d93d
000003e0: 119b 813d c23a 003d 1bc5 153e a6fb 0abe
000003f0: 79c4 b33c b127 1a3d fed4 d63a 6de0 063d

fullyCon2.mean_fc.bias f4 [93]
0.00097179506 0.0009717946 0.0009717951 0.0009717946 0.0009717943 0.0009717942 0.00097179407 0.0009717945
0.0009717938 0.0009717939 0.00097179454 0.0009717944 0.0009717944 0.000971794 0.0009717948 0.00097179477
0.0009717947 0.00097179465 0.0009717944 0.0009717945 0.0009717946 0.00097179424 0.0009717944 0.00097179436
0.0009717942 0.00097179465 0.0009717945 0.0009717948 0.0009717941 0.00097179436 0.00097179465 0.0009717944
0.00097179407 0.00097179424 0.00097179436 0.00097179424 0.0009717946 0.00097179436 0.0009717943 0.00097179384
0.00097179454 0.0009717939 0.00097179454 0.0009717945 0.00097179424 0.0009717941 0.0009717944 0.0009717943
0.0009717946 0.000971794 0.0009717939 0.0009717948 0.00097179436 0.0009717944 0.00097179424 0.00097179424
0.0009717944 0.0009717954 0.0009717941 0.00097179494 0.00097179436 0.00097179436 0.0009717944 0.00097179384
0.00097179436 0.0009717945 0.0009717945 0.0009717941 0.00097179465 0.00097179465 0.00097179454 0.0009717945
0.0009717946 0.00097179454 0.0009717944 0.0009717943 0.0009717943 0.0009717951 0.00097179395 0.00097179395
0.00097179465 0.00097179465 0.00097179436 0.00097179436 0.0009717941 0.0009717944 0.0009717941 0.00097179436
0.000971794 0.0009717946 0.000971795 0.000971794 0.0009717945
00000000: 10c0 7e3a 08c0 7e3a 11c0 7e3a 08c0 7e3a
00000010: 03c0 7e3a 01c0 7e3a ffbf 7e3a 06c0 7e3a
00000020: fabf 7e3a fcbf 7e3a 07c0 7e3a 05c0 7e3a
00000030: 05c0 7e3a febf 7e3a 0cc0 7e3a 0bc0 7e3a
00000040: 0ac0 7e3a 09c0 7e3a 05c0 7e3a 06c0 7e3a
00000050: 08c0 7e3a 02c0 7e3a 05c0 7e3a 04c0 7e3a
00000060: 01c0 7e3a 09c0 7e3a 06c0 7e3a 0cc0 7e3a
00000070: 00c0 7e3a 04c0 7e3a 09c0 7e3a 05c0 7e3a
00000080: ffbf 7e3a 02c0 7e3a 04c0 7e3a 02c0 7e3a
00000090: 08c0 7e3a 04c0 7e3a 03c0 7e3a fbbf 7e3a
000000a0: 07c0 7e3a fcbf 7e3a 07c0 7e3a 06c0 7e3a
000000b0: 02c0 7e3a 00c0 7e3a 05c0 7e3a 03c0 7e3a
000000c0: 08c0 7e3a febf 7e3a fcbf 7e3a 0cc0 7e3a
000000d0: 04c0 7e3a 05c0 7e3a 02c0 7e3a 02c0 7e3a
000000e0: 05c0 7e3a 16c0 7e3a 00c0 7e3a 0ec0 7e3a
000000f0: 04c0 7e3a 04c0 7e3a 05c0 7e3a fbbf 7e3a
00000100: 04c0 7e3a 06c0 7e3a 06c0 7e3a 00c0 7e3a
00000110: 09c0 7e3a 09c0 7e3a 07c0 7e3a 06c0 7e3a
00000120: 08c0 7e3a 07c0 7e3a 05c0 7e3a 03c0 7e3a
00000130: 03c0 7e3a 11c0 7e3a fdbf 7e3a fdbf 7e3a
00000140: 09c0 7e3a 09c0 7e3a 04c0 7e3a 04c0 7e3a
00000150: 00c0 7e3a 05c0 7e3a 00c0 7e3a 04c0 7e3a
00000160: febf 7e3a 08c0 7e3a 0fc0 7e3a febf 7e3a
00000170: 06c0 7e3a

fullyCon3.sigma_fc_weight f4 [1, 94]
-6.36188 -8.657045 -4.354494 -4.2074957 -4.9281406 -11.297414 -2.2591689 -5.3611894
-2.6546848 -6.9607077 -3.4206958 -6.0895586 -7.9401255 -11.610364 -7.4554634 -8.05018
-6.4756584 -2.6119626 -8.624938 -2.9959643 -7.7560997 -4.1662493 -7.214656 -8.258765
-9.520117 -3.484256 -9.601918 -9.243965 -2.9113905 -7.4468374 -7.267016 -10.487455
-6.231099 -9.138965 -3.6508255 -11.370153 -9.050484 -5.4113526 -5.6667123 -11.221993
-10.47902 -4.105223 -3.174017 -9.700923 -5.4237804 -3.5101466 -2.975745 -6.7242427
-4.809316 -3.7678351 -10.798887 -4.529027 -4.2474217 -7.4764233 -9.974177 -7.2574987
-2.4433572 -9.253373 -7.1576076 -7.502115 -9.987984 -9.84676 -8.605004 -10.780757
-8.762423 -8.238802 -7.8302064 -4.509028 -10.062887 -3.7030513 -7.8609195 -2.9836636
-6.0651746 -2.4625676 -8.513958 -8.744378 -3.751231 -10.965311 -7.053385 -11.317137
-3.2005577 -10.536912 -10.501705 -5.7874126 -5.0845065 -6.525677 -4.9630246 -5.3763685
-2.7437663 -4.5458655 -10.365599 -10.287183 -11.23824 -11.070295
00000000: 8594 cbc0 4283 0ac1 0458 8bc0 cea3 86c0
00000010: 54b3 9dc0 35c2 34c1 3996 10c0 dd8e abc0
00000020: 5be6 29c0 1ebe dec0 aeec 5ac0 aadd c2c0
00000030: 8215 fec0 0dc4 39c1 2893 eec0 8acd 00c1
00000040: 9838 cfc0 652a 27c0 bfff 09c1 e1bd 3fc0
00000050: f831 f8c0 ea51 85c0 76de e6c0 e723 04c1
00000060: 6652 18c1 0dfe 5ec0 75a1 19c1 48e7 13c1
00000070: 3954 3ac0 7e4c eec0 658b e8c0 9ecc 27c1
00000080: 2a65 c7c0 3339 12c1 20a7 69c0 26ec 35c1
00000090: c8ce 10c1 cd29 adc0 b555 b5c0 498d 33c1
000000a0: 11aa 27c1 fd5d 83c0 1823 4bc0 fb36 1bc1
000000b0: 9c8f adc0 3ea6 60c0 9b72 3ec0 ff2c d7c0
000000c0: ebe5 99c0 3624 71c0 3ec8 2cc1 caed 90c0
000000d0: e1ea 87c0 dc3e efc0 3b96 1fc1 6e3d e8c0
000000e0: f75f 1cc0 d10d 14c1 1f0b e5c0 5311 f0c0
000000f0: c8ce 1fc1 548c 1dc1 19ae 09c1 fb7d 2cc1
00000100: e232 0cc1 22d2 03c1 0d91 fac0 f549 90c0
00000110: 9601 21c1 cbfe 6cc0 a78c fbc0 58f4 3ec0
00000120: e915 c2c0 b59a 1dc0 2c39 08c1 f9e8 0bc1
00000130: 2b14 70c0 ea71 2fc1 54b5 e1c0 fe12 35c1
00000140: f0d5 4cc0 3197 28c1 fc06 28c1 7c32 b9c0
00000150: 47b4 a2c0 59d2 d0c0 19d1 9ec0 360b acc0
00000160: de99 2fc0 bb77 91c0 7ed9 25c1 4d98 24c1
00000170: d5cf 33c1 ee1f 31c1

fullyCon3.mean_fc.weight f4 [94, 93]
-0.047679722 0.064168885 -0.030189373 1.8078042e-06 -0.053315185 -0.009865391 0.025448928 -0.09808268
-0.0013872252 -0.13362755 -0.0018782461 0.10664231 0.03221317 -0.09059237 -0.016663127 0.013795269
0.10391311 0.026585545 0.15188909 0.035143413 -0.03389246 -0.05723541 0.05946535 6.8528007e-06
-0.024729313 -0.02394004 0.06800161 0.034902744 -0.020885345 0.060060862 0.0544858 0.119661435
-0.17547062 0.04063673 -0.14575003 0.111655414 0.15138574 -0.16166665 0.009400246 0.0757723
0.09240256 -0.02437111 7.748226e-06 -0.047569275 0.08271626 -0.02861874 -0.08245232 0.10054222
-0.24561283 -3.6684662e-06 0.16680829 -0.018832056 0.014707803 0.21355471 -0.041905317 -0.0731762
-0.023916712 -0.05716363 -0.094775245 -0.081681795 0.014676578 0.13799948 -0.11390177 -0.032196965
-0.007183471 -0.039991245 0.13048697 -0.003528737 -0.049971763 -0.10273517 -0.22028661 -0.09591813
0.09225263 -0.0676398 0.02837162 0.14290148 0.09897476 0.06444593 0.14546697 0.14686067
-0.02406163 0.15620713 0.08746125 0.14232087 0.016673665 0.048101414 0.21043222 0.06109037
-0.10349382 0.009688113 0.1810832 -0.04768637 -0.17890088 0.3037762 0.042205255 0.056936834
0.1399092 0.03697963 0.09051267 -0.033549044 -0.006875704 -0.04811119 -0.018307982 1.9880924e-06
0.011859134 0.0059365407 0.015313917 -0.026976025 0.09328619 -0.11906662 -0.0071729585 0.0800732
-0.10134504 0.0009915513 0.031598866 -0.03739931 -0.10631843 0.034703776 -0.03880864 -0.12819417
0.14051618 -0.045283623 -0.09390126 0.080358915 0.0047493195 0.027876096 -0.12352771 0.10853889
-0.17172098 0.09424665 -0.053033985 0.06709297 -4.7518075e-05 -0.07050317 0.058321413 0.124919266
0.039500695 0.12682803 0.11512034 0.10357679 0.05028197 0.0040791435 0.10328718 -0.1501292
-0.025274007 0.08209705 0.08417277 0.026269116 -0.0879475 -0.05178721 -0.12843898 0.07469315
0.003421436 0.08374416 0.047820188 0.060314924 -0.1419346 0.015519179 0.13989674 -0.00047807413
-0.028267672 -0.04733374 0.115172535 0.11312242 0.017993324 -0.15265165 -0.18048547 0.0806449
0.08324006 0.2638965 0.07014797 2.0849245e-06 -0.07513817 0.05465604 0.06589377 -0.17462784
0.11355287 -0.020181257 0.00480449 -0.041483067 -0.02452113 0.050752614 -0.029148178 6.151929e-07
0.27932084 0.012762096 0.0448713 0.0041988627 7.369135e-07 -0.03183907 -0.055773005 0.07306129
-0.007831514 0.018996315 0.12216471 -0.09506065 -0.13321249 0.058421012 -3.02132e-06 0.04357027
-0.08589892 0.1355596 0.048797045 -0.0031693783 0.08685766 0.056618385 -0.0674991 -0.039060406
0.082592726 0.011270015 -0.022413291 0.0033133964 0.02857023 0.07741617 0.025339361 -0.01954236
-0.04485938 -0.19292174 0.17859592 -0.22140914 -0.08994589 -0.16805181 -0.042273615 0.08204322
0.07295396 0.15974635 -0.0063822297 -0.005473897 0.029283145 -0.013054413 -0.0379579 -0.11192339
0.25578776 -0.06552737 -0.046895646 0.087439865 -0.06774706 -0.07486894 -0.062415782 -2.935662e-06
-0.33005252 -0.054704722 -0.0049806074 0.075803064 -0.12470199 -8.1756104e-07 0.0031755564 0.06070403
0.1844294 -0.054082934 -0.06555513 -0.03593151 0.045360893 -0.045213968 -0.027007287 -0.027288951
00000000: d04b 43bd fa6a 833d b44f f7bc aea3 f235
00000010: 0661 5abd 73a2 21bc 457a d03c 92df c8bd
00000020: 8ed3 b5ba a9d5 08be 7b2f f6ba 4967 da3d
00000030: f5f1 033d 7e88 b9bd 1c81 88bc 8d05 623c
00000040: 66d0 d43d eec9 d93c d088 1b3e 8af2 0f3d
00000050: d2d2 0abd ad6f 6abd f091 733d 1cf1 e536
00000060: 2195 cabc e71d c4bc 6e44 8b3d 2ef6 0e3d
00000070: be17 abbc 6102 763d 812c 5f3d 0e11 f53d
00000080: 92ae 33be b372 263d 7f3f 15be 98ab e43d
00000090: dd04 1b3e f18b 25be 7d03 1a3c 822e 9b3d
000000a0: 8e3d bd3d eca5 c7bc 61fe 0137 00d8 42bd
000000b0: 2467 a93d d971 eabc c3dc a8bd 14e9 cd3d
000000c0: ee81 7bbe c52f 76b6 cbcf 2a3e af45 9abc
000000d0: fff8 703c 16ae 5a3e e9a4 2bbd 67dd 95bd
000000e0: fbec c3bc 6924 6abd 8619 c2bd c948 a7bd
000000f0: 0876 703c bc4f 0d3e 5545 e9bd f7e0 03bd
00000100: 5363 ebbb dccd 23bd 609e 053e 6242 67bb
00000110: 31af 4cbd d166 d2bd d092 61be b970 c4bd
00000120: f2ee bc3d bc86 8abd 9a6b e83c c454 123e
00000130: 47b3 ca3d 3afc 833d 4bf5 143e a562 163e
00000140: e51c c5bc c3f4 1f3e e21e b33d 90bc 113e
00000150: 3697 883c fd05 453d 8b7b 573e e539 7a3d
00000160: 91f4 d3bd e4ba 1e3c e06d 393e c852 43bd
00000170: cb31 37be 8e88 9b3e 6bdf 2c3d 9936 693d
00000180: 5b44 0f3e f477 173d b55e b93d b96a 09bd
00000190: 964d e1bb 3d10 45bd 9ffa 95bc 2b6b 0536
000001a0: d04c 423c 5087 c23b 39e7 7a3c d3fc dcbc
000001b0: d40c bf3d 33d9 f3bd 230b ebbb 6bfd a33d
000001c0: fd8d cfbd f1f6 813a d06d 013d 0530 19bd
000001d0: 7abd d9bd 8c25 0e3d cff5 1ebd 5545 03be
000001e0: 79e3 0f3e 527b 39bd 4e4f c0bd 3793 a43d
000001f0: 2ea0 9b3b 695c e43c 19fc fcbd a349 de3d
00000200: a0d7 2fbe 6304 c13d 2a3a 59bd 0a68 893d
00000210: 254e 47b8 f763 90bd 6fe2 6e3d acd5 ff3d
00000220: 7bcb 213d 35df 013e 36c4 eb3d 1120 d43d
00000230: 78f4 4d3d 56aa 853b 3b88 d33d 78bb 19be
00000240: 6f0b cfbc 8022 a83d c662 ac3d 5432 d73c
00000250: d21d b4bd d31e 54bd 8285 03be b9f8 983d
00000260: 2c3a 603b 0f82 ab3d 1adf 433d c80c 773d
00000270: 4e57 11be 2844 7e3c 1741 0f3e 06a6 fab9
00000280: 9b91 e7bc 06e1 41bd 94df eb3d baac e73d
00000290: bc66 933c b750 1cbe 2fd1 38be 2729 a53d
000002a0: c479 aa3d 711d 873e bda9 8f3d bbea 0b36
000002b0: 0ae2 99bd 03df 5f3d 50f3 863d a4d1 32be
000002c0: 688e e83d 2a53 a5bc fc6e 9d3b 26ea 29bd
000002d0: 89e0 c8bc f9e1 4f3d 29c8 eebc bc23 2535
000002e0: 2403 8f3e 1c18 513c f8ca 373d 9d96 893b
000002f0: 4fd0 4535 af69 02bd 3c72 64bd 28a1 953d
00000300: c04f 00bc 299e 9b3c 7e31 fa3d 28af c2bd
00000310: db68 08be df4a 6f3d e2c1 4ab6 bd76 323d
00000320: c6eb afbd 23d0 0a3e 69df 473d 58b5 4fbb
00000330: 6ee2 b13d aee8 673d f83c 8abd cefd 1fbd
00000340: 6026 a93d dea5 383c 149c b7bc 9125 593b
00000350: 1d0c ea3c 5e8c 9e3d 7e94 cf3c 4d17 a0bc
00000360: 78be 37bd 478d 45be d9e1 363e 14b9 62be
00000370: 8d35 b8bd c615 2cbe 1927 2dbd 4706 a83d
00000380: e368 953d 8c94 233e 0622 d1bb 605e b3bb
00000390: 35e3 ef3c 2de2 55bc be79 1bbd 1738 e5bd
000003a0: 9df6 823e 3733 86bd a615 40bd ac13 b33d
000003b0: f8be 8abd e354 99bd b1a7 7fbd 4a02 45b6
000003c0: a5fc a8be 0f12 60bd 5d34 a3bb a33e 9b3d
000003d0: c263 ffbd 5e76 5bb5 ff1c 503b caa4 783d
000003e0: 10db 3c3e 1186 5dbd c541 86bd eb2c 13bd
000003f0: 58cc 393d 4832 39bd 633e ddbc 148d dfbc

fullyCon3.mean_fc.bias f4 [94]
0.00097179436 0.00097179454 0.00097179436 0.00097179436 0.0009717944 0.0009717944 0.00097179436 0.00097179424
0.0009717944 0.0009717947 0.00097179454 0.0009717945 0.00097179436 0.0009717944 0.0009717944 0.00097179436
0.00097179424 0.00097179436 0.00097179436 0.0009717944 0.00097179436 0.00097179454 0.0009717944 0.0009717946
0.0009717944 0.0009717944 0.0009717944 0.00097179436 0.00097179424 0.00097179436 0.00097179465 0.00097179454
0.00097179436 0.0009717944 0.0009717944 0.0009717944 0.0009717944 0.00097179465 0.0009717945 0.00097179424
0.0009717945 0.0009717947 0.00097179424 0.00097179465 0.00097179465 0.0009717945 0.0009717944 0.0009717945
0.00097179454 0.0009717944 0.00097179436 0.0009717944 0.00097179436 0.0009717945 0.00097179436 0.00097179436
0.0009717944 0.00097179454 0.00097179436 0.00097179454 0.00097179454 0.0009717945 0.00097179454 0.00097179454
0.0009717944 0.00097179436 0.0009717945 0.00097179436 0.00097179436 0.00097179436 0.00097179465 0.00097179454
0.00097179454 0.0009717944 0.0009717946 0.00097179436 0.0009717944 0.0009717946 0.00097179454 0.0009717945
0.00097179436 0.00097179454 0.00097179436 0.00097179454 0.00097179436 0.00097179454 0.0009717943 0.0009717945
0.00097179454 0.00097179454 0.0009717944 0.00097179436 0.0009717944 0.00097179436
00000000: 04c0 7e3a 07c0 7e3a 04c0 7e3a 04c0 7e3a
00000010: 05c0 7e3a 05c0 7e3a 04c0 7e3a 02c0 7e3a
00000020: 05c0 7e3a 0ac0 7e3a 07c0 7e3a 06c0 7e3a
00000030: 04c0 7e3a 05c0 7e3a 05c0 7e3a 04c0 7e3a
00000040: 02c0 7e3a 04c0 7e3a 04c0 7e3a 05c0 7e3a
00000050: 04c0 7e3a 07c0 7e3a 05c0 7e3a 08c0 7e3a
00000060: 05c0 7e3a 05c0 7e3a 05c0 7e3a 04c0 7e3a
00000070: 02c0 7e3a 04c0 7e3a 09c0 7e3a 07c0 7e3a
00000080: 04c0 7e3a 05c0 7e3a 05c0 7e3a 05c0 7e3a
00000090: 05c0 7e3a 09c0 7e3a 06c0 7e3a 02c0 7e3a
000000a0: 06c0 7e3a 0ac0 7e3a 02c0 7e3a 09c0 7e3a
000000b0: 09c0 7e3a 06c0 7e3a 05c0 7e3a 06c0 7e3a
000000c0: 07c0 7e3a 05c0 7e3a 04c0 7e3a 05c0 7e3a
000000d0: 04c0 7e3a 06c0 7e3a 04c0 7e3a 04c0 7e3a
000000e0: 05c0 7e3a 07c0 7e3a 04c0 7e3a 07c0 7e3a
000000f0: 07c0 7e3a 06c0 7e3a 07c0 7e3a 07c0 7e3a
00000100: 05c0 7e3a 04c0 7e3a 06c0 7e3a 04c0 7e3a
00000110: 04c0 7e3a 04c0 7e3a 09c0 7e3a 07c0 7e3a
00000120: 07c0 7e3a 05c0 7e3a 08c0 7e3a 04c0 7e3a
00000130: 05c0 7e3a 08c0 7e3a 07c0 7e3a 06c0 7e3a
00000140: 04c0 7e3a 07c0 7e3a 04c0 7e3a 07c0 7e3a
00000150: 04c0 7e3a 07c0 7e3a 03c0 7e3a 06c0 7e3a
00000160: 07c0 7e3a 07c0 7e3a 05c0 7e3a 04c0 7e3a
00000170: 05c0 7e3a 04c0 7e3a

fullyCon4.mean_fc.weight f4 [1, 94]
0.07313033 0.056555178 0.001024309 -0.0061008227 -0.04406401 -0.06507539 -0.0024165746 0.038140215
-0.0017859131 -0.1410504 -0.0049708937 0.08530443 0.10080797 -0.07671887 0.0057852534 -0.019599063
0.0887378 0.0018395473 0.041653544 0.0028782075 -0.014150039 0.0071875975 0.15357856 0.16547774
0.09364754 -0.019026337 0.13699971 0.0013085116 -0.005758856 0.0023632762 -0.07492145 -0.187037
0.117848486 -0.0044472506 0.019419575 0.16615056 0.080823906 0.043024193 -0.084950946 0.05898752
0.22105917 0.0041364883 -0.012985868 -0.083032064 0.0023246456 -0.020303285 0.0012187683 -0.038289387
0.039687876 0.0007224982 0.054349046 -0.07300817 0.016536092 -0.042803455 0.0122206835 0.080264464
0.002624645 0.11569001 -0.03791491 -0.099648654 0.027695393 0.026818527 -0.06270359 -2.7411748e-05
0.032748234 0.031031176 0.24815053 0.014280902 -0.071388625 -0.028354988 -0.028780082 0.0043215468
-0.05661574 -0.0027724442 -0.050625842 0.016176019 0.008886808 -0.026772916 0.039651297 0.004974006
-0.008645499 -0.01854974 0.016843937 0.024330186 -0.04606975 0.096729115 -0.04084557 -0.007776134
-0.0029454255 -0.019091533 0.003949558 -0.051626373 0.11438524 -0.004503389
00000000: 5bc5 953d 67a6 673d 1b42 863a 69e9 c7bb
00000010: 777c 34bd 3f46 85bd 655f 1ebb ea38 1c3d
00000020: 4d15 eaba 846f 10be e1e2 a2bb 17b4 ae3d
00000030: 6974 ce3d c81e 9dbd 3992 bd3b 378e a0bc
00000040: 2abc b53d f71c f13a e89c 2a3d 4fa0 3c3b
00000050: 91d5 67bc f085 eb3b b343 1d3e ff72 293e
00000060: 48ca bf3d 1fdd 9bbc a749 0c3e 5d82 ab3a
00000070: c9b4 bcbb 32e1 1a3b 6b70 99bd a186 3fbe
00000080: 8c5a f13d 3eba 91bb cd15 9f3c 5f23 2a3e
00000090: 0187 a53d 233a 303d c3fa adbd e69c 713d
000000a0: 565d 623e 618b 873b aec2 54bc b70c aabd
000000b0: 1559 183b 1353 a6bc 14bf 9f3a 55d5 1cbd
000000c0: c18f 223d 0966 3d3a 1b9d 5e3d 4f85 95bd
000000d0: b376 873c ad52 2fbd 4339 483c b261 a43d
000000e0: 3c02 2c3b e2ee ec3d aa4c 1bbd 9814 ccbd
000000f0: 73e1 e23c 87b2 db3c bd6a 80bd 48f2 e5b7
00000100: 0323 063d 1835 fe3c 2c1b 7e3e 72fa 693c
00000110: 3334 92bd b848 e8bc 35c4 ebbc c39b 8d3b
00000120: e8e5 67bd e5b1 35bb 0b5d 4fbd 9283 843c
00000130: f999 113c e052 dbbc 6669 223d fdfc a23b
00000140: daa5 0dbc a0f5 97bc 4cfc 893c 1950 c73c
00000150: a2b3 3cbd ea19 c63d af4d 27bd f1ce febb
00000160: 0a08 41bb d965 9cbc 4b6b 813b 2d76 53bd
00000170: cf42 ea3d 2a91 93bb

bn1.weight f4 [31]
0.9660082 0.9595939 0.9676161 0.9386053 0.9517718 0.95614856 0.9333294 0.93316376
0.93672895 0.9546283 0.97261083 0.95293725 0.95074344 0.9461072 0.95290804 0.93892115
0.93827 0.95437634 0.9296993 0.9578425 0.9605897 0.95310336 0.9477427 0.96076554
0.9652655 0.9463559 0.93648744 0.95097953 0.94567484 0.9268035 0.95250714
00000000: 504c 773f f2a7 753f b0b5 773f 7048 703f
00000010: 51a7 733f 27c6 743f adee 6e3f d2e3 6e3f
00000020: 78cd 6f3f 8562 743f 06fd 783f b2f3 733f
00000030: ec63 733f 1534 723f c8f1 733f 235d 703f
00000040: 7632 703f 0252 743f c600 6e3f 2b35 753f
00000050: 35e9 753f 95fe 733f 449f 723f bbf4 753f
00000060: a41b 773f 6144 723f a4bd 6f3f 6573 733f
00000070: bf17 723f ff42 6d3f 82d7 733f

bn1.bias f4 [31]
-0.0036185277 0.003984894 0.0030826952 -0.005339197 -0.0015516113 0.0064859423 -0.013510873 -0.011669629
-0.0065803034 0.008768628 0.009442732 0.013153958 -0.0017281575 -0.007793702 -0.00079595996 -0.008954967
0.009642226 -0.007454505 0.009274051 -0.00083330495 0.0038399906 -0.0019720653 0.011492928 0.006386394
-0.0056698215 -0.0006328237 -0.0031923952 0.0047248253 0.01107844 -0.002598233 0.014265861
00000000: d224 6dbb b793 823b 0b07 4a3b 6ef4 aebb
00000010: 705f cbba 0788 d43b b55c 5dbc f931 3fbc
00000020: 969f d7bb 4baa 0f3c b0b5 1a3c b383 573c
00000030: 5883 e2ba 5062 ffbb f8a7 50ba dbb7 12bc
00000040: 6dfa 1d3c ec44 f4bb 30f2 173c 2672 5aba
00000050: 5aa8 7b3b c43d 01bb d54c 3c3c f544 d13b
00000060: e9c9 b9bb 14e4 25ba 8137 51bb b5d2 9a3b
00000070: 5882 353c 1e47 2abb 5cbb 693c

bn1.running_mean f4 [31]
0.08881693 0.12874421 0.075444214 0.01486124 -0.040953305 -0.030242326 -0.048044004 0.018884161
-0.021760637 0.036067903 0.06140816 -0.014209891 0.0013255577 0.05544702 -0.07229261 0.008348394
0.0658631 0.02828539 -0.0049215117 -0.031544518 -0.03276271 -0.006853735 -0.09442055 -0.014689539
0.017178103 -0.011450471 -0.05422395 -0.011121221 0.031405836 0.019497054 0.0014494675
00000000: a7e5 b53d 86d5 033e 7f82 9a3d 8f7c 733c
00000010: a7be 27bd c1be f7bc cac9 44bd f5b2 9a3c
00000020: 5d43 b2bc f0bb 133d 1f87 7b3d 9ad0 68bc
00000030: 56be ad3a 6a1c 633d 260e 94bd b4c7 083c
00000040: 3ce3 863d c3b6 e73c a244 a1bb d334 01bd
00000050: 3132 06bd 4c95 e0bb 905f c1bd 64ac 70bc
00000060: 18b9 8c3c c29a 3bbc ef19 5ebd c835 36bc
00000070: 68a3 003d 49b8 9f3c 0ffc bd3a

bn1.running_var f4 [31]
0.15886484 0.21647422 0.22196637 0.09040411 0.11739141 0.085392594 0.13395156 0.17025696
0.055639368 0.11534793 0.06803972 0.09504494 0.0948773 0.16608188 0.14636377 0.114166975
0.1049676 0.10982914 0.1359599 0.11025299 0.052147493 0.07362732 0.2068029 0.039077926
0.1350938 0.11291429 0.14723685 0.17906989 0.059899688 0.14742674 0.11036511
00000000: 77ad 223e 6bab 5d3e 274b 633e ca25 b93d
00000010: e86a f03d 50e2 ae3d 992a 093e d757 2e3e
00000020: 1be6 633d 893b ec3d 6958 8b3d eca6 c23d
00000030: 084f c23d 5e11 2a3e 62e0 153e 60d0 e93d
00000040: 41f9 d63d 1aee e03d 1239 0b3e 52cc e13d
00000050: 9c98 553d ecc9 963d 24c4 533e 2d10 203d
00000060: 0756 0a3e 9b3f e73d 42c5 163e 195e 373e
00000070: 6059 753d 09f7 163e 1a07 e23d

bn2.weight f4 [93]
0.9599413 0.9598637 0.95829713 0.9591257 0.9566687 0.9597768 0.96082 0.9635316
0.9644287 0.9651205 0.960436 0.96084744 0.9595251 0.9605785 0.9586686 0.9609306
0.95674634 0.9590439 0.9579988 0.9630544 0.9564192 0.96234316 0.9584324 0.96269476
0.9636078 0.9619903 0.9572202 0.96356386 0.9609424 0.96276313 0.96145225 0.95761746
0.9564243 0.95567906 0.96051484 0.96052575 0.9625723 0.9644417 0.9583318 0.9593879
0.9626868 0.96011823 0.958636 0.9575086 0.96113056 0.960421 0.95624435 0.9576902
0.95902926 0.96081054 0.9670296 0.96133006 0.9585798 0.9565802 0.96255946 0.9608631
0.9616389 0.9547646 0.9671586 0.9620191 0.96070457 0.95976734 0.9595883 0.9592334
0.96252555 0.9595506 0.96020436 0.96063983 0.9629069 0.957951 0.95740294 0.9549922
0.96043116 0.9583143 0.95893735 0.95887357 0.9618542 0.9565957 0.95849717 0.9597709
0.9600963 0.9571056 0.9556917 0.9596749 0.9583619 0.9610206 0.9596073 0.95179486
0.96096915 0.960122 0.9598467 0.956471 0.96059996
00000000: b7be 753f a1b9 753f f652 753f 4389 753f
00000010: 3de8 743f efb3 753f 4df8 753f 02aa 763f
00000020: cde4 763f 2312 773f 22df 753f 19fa 753f
00000030: 70a3 753f 79e8 753f 4e6b 753f 8cff 753f
00000040: 54ed 743f e783 753f 693f 753f bc8a 763f
00000050: e4d7 743f 1f5c 763f d35b 753f 2a73 763f
00000060: 00af 763f ff44 763f 620c 753f 1fac 763f
00000070: 5200 763f a577 763f bc21 763f 6b26 753f
00000080: 39d8 743f 62a7 743f 4de4 753f 04e5 753f
00000090: 236b 763f a7e5 763f 3c55 753f 729a 753f
000000a0: a472 763f 4fca 753f 2b69 753f 491f 753f
000000b0: a70c 763f 27de 753f 6ecc 743f 2f2b 753f
000000c0: f182 753f aef7 753f 408f 773f ba19 763f
000000d0: 7c65 753f 71e2 743f 4c6a 763f 20fb 753f
000000e0: f82d 763f 746b 743f b597 773f e246 763f
000000f0: bcf0 753f 50b3 753f 94a7 753f 5290 753f
00000100: 1368 763f 1ca5 753f f4cf 753f 7eec 753f
00000110: 1181 763f 473c 753f 5c18 753f 5e7a 743f
00000120: d1de 753f 1654 753f eb7c 753f bd78 753f
00000130: 143c 763f 75e3 743f 1260 753f 8cb3 753f
00000140: dfc8 753f df04 753f 36a8 743f 41ad 753f
00000150: 3557 753f 7205 763f d3a8 753f d4a8 733f
00000160: 1302 763f 8eca 753f 83b8 753f 49db 743f
00000170: e1e9 753f

bn2.bias f4 [93]
-0.004613854 -0.0073257727 -0.004640056 -0.0055657807 0.002210698 0.0031718917 0.0026998261 -0.0029405826
0.0044329655 0.0034763503 -0.0024620984 0.0009498339 0.0001415359 0.005346901 -0.005870749 -0.004135593
-0.0010214003 -0.00040458326 -0.0027613791 -0.0016057462 -0.003425889 0.0026574323 -0.00011086238 0.001375213
0.004516722 -0.005607806 -0.00095704664 -0.0055789733 0.0014140895 -0.0014375566 -0.0038303025 -0.001958298
0.0042580073 0.0008620275 -0.0018140088 0.0017807723 -0.0043541463 -0.0008761858 0.0018495312 0.004885341
-0.005126311 0.0040493864 -0.0014263823 -0.0011398956 0.00022394248 0.004265735 -0.0012302896 -0.0031443837
-0.0042984816 0.005989836 0.0053658085 -0.0028032993 0.001357735 4.6740264e-05 0.003877372 0.0010322605
-0.00011179393 -0.0059335055 0.0056046997 -0.0029023956 -0.0018215158 0.00056611 0.00022290918 0.004567913
0.00462959 0.0029772702 -0.00029161916 0.005296759 -0.0015969834 -0.004044965 -0.0016034698 -0.0015472405
-0.0043853093 0.00021069092 -0.0007395608 0.0036840353 0.0009819573 -0.007358973 0.0026400136 0.007410721
-0.006592655 -0.004951996 -0.0016047388 0.0012013101 0.0016040484 0.00016702859 0.0044447486 0.0014670497
0.0038869695 -0.001223422 -0.0037456376 0.0017360249 -0.0006217165
00000000: d02f 97bb 090d f0bb 9c0b 98bb 2761 b6bb
00000010: 5ce1 103b 83df 4f3b 91ef 303b cab6 40bb
00000020: 6942 913b 7bd3 633b 285b 21bb 46fe 783a
00000030: 4169 1439 0e35 af3b 695f c0bb de83 87bb
00000040: 82e0 85ba 3f1e d4b9 41f8 34bb e777 d2ba
00000050: e184 60bb 5128 2e3b c97e e8b8 7e40 b43a
00000060: 0301 943b b0c1 b7bb 50e2 7aba d2cf b6bb
00000070: f858 b93a 656c bcba d005 7bbb ca56 00bb
00000080: c186 8b3b b0f9 613a 09c4 edba ce68 e93a
00000090: 3aad 8ebb d5af 65ba f86b f23a 3615 a03b
000000a0: 9dfa a7bb b7b0 843b 73f5 baba 8d68 95ba
000000b0: 1ad2 6a39 94c7 8b3b ab41 a1ba 0112 4ebb
000000c0: 47da 8cbb 6346 c43b aad3 af3b 8fb7 37bb
000000d0: 07f6 b13a fa0a 4438 821b 7e3b ea4c 873a
000000e0: e972 eab8 da6d c2bb a1a7 b73b 1e36 3ebb
000000f0: eebf eeba 0067 143a babc 6939 6eae 953b
00000100: d1b3 973b 4e1e 433b 76e4 98b9 6f90 ad3b
00000110: df51 d1ba a08b 84bb 852b d2ba c7cc caba
00000120: a4b2 8fbb eaec 5c39 16df 41ba db6f 713b
00000130: 05b5 803a 8a23 f1bb 1404 2d3b a2d5 f23b
00000140: 3307 d8bb 5a44 a2bb 1956 d2ba 4775 9d3a
00000150: ef3e d23a 6524 2f39 41a5 913b 054a c03a
00000160: 87bc 7e3b 3b5b a0ba 5f79 75bb 548b e33a
00000170: b0fa 22ba

bn2.running_mean f4 [93]
0.0094970865 0.04783489 0.02049812 0.0016910721 0.013445816 0.00064537884 0.0019861814 -0.004727918
-0.02153591 -0.011347788 0.00830946 0.030814428 -0.006032856 -0.016943267 -0.0013711582 -0.005465255
0.020936968 -0.032007586 -0.008108277 -0.00022034264 0.030818516 -0.01063343 0.0015407208 -0.017911619
-0.02662769 0.03600027 -0.0010650164 0.035752703 -0.028330434 -0.005600065 0.037592944 0.0028919997
0.021328108 0.016631342 -0.010882066 -0.010350864 0.038009718 -0.050468735 0.035096984 -0.019158747
-0.009876361 -0.02857848 -0.030791637 0.02458666 -0.04942992 -0.033444118 -0.0038820477 -0.02078004
0.013940815 0.0069626113 -0.017430035 0.006559475 0.018555723 0.0039358004 -0.054904714 -0.034476213
-0.00050583517 0.022634482 -0.034158148 0.0110823335 -0.0035521074 0.007819433 -0.04248406 0.0024106356
-0.04766487 0.017740075 -0.0078061493 0.00843177 -0.020056719 0.0036490054 0.040435407 0.011168995
-0.031718086 0.03423908 -0.017521406 -0.012814119 0.012130065 0.019831218 0.0052755233 0.008863188
0.0050490466 0.0088776015 -0.017391136 -0.00020215701 0.00490211 -0.0057631717 0.008583065 0.0067462916
-0.021309167 0.0018670997 0.025073394 -0.009074502 -0.016853586
00000000: ab99 1b3c 85ee 433d aceb a73c f7a6 dd3a
00000010: d74b 5c3c a42e 293a 982a 023b a7ec 9abb
00000020: 146c b0bc 13ec 39bc 6724 083c 8a6e fc3c
00000030: 44af c5bb 9bcc 8abc 6fb8 b3ba e215 b3bb
00000040: 0184 ab3c 631a 03bd 94d8 04bc c70b 67b9
00000050: 1d77 fc3c d737 2ebc 03f2 c93a 63bb 92bc
00000060: 5022 dabc 0575 133d 0598 8bba 6d71 123d
00000070: 3a15 e8bc c080 b7bb 0ffb 193d b487 3d3b
00000080: 49b8 ae3c 743e 883c b14a 32bc ac96 29bc
00000090: 14b0 1b3d 4eb8 4ebd dbc1 0f3d cef2 9cbc
000000a0: 76d0 21bc 6b1d eabc be3e fcbc f769 c93c
000000b0: 0777 4abd b3fc 08bd f469 7ebb e73a aabc
000000c0: 0468 643c 9e26 e43b 6fc9 8ebc ddf0 d63b
000000d0: 2c02 983c e3f7 803b c4e3 60bd ee36 0dbd
000000e0: 069a 04ba f36b b93c 6ae9 0bbd ad92 353c
000000f0: 79ca 68bb 141d 003c c403 2ebd c1fb 1d3b
00000100: 3d3c 43bd a253 913c baca ffbb 6825 0a3c
00000110: fd4d a4bc 2724 6f3b 999f 253d 29fe 363c
00000120: d3ea 01bd 473e 0c3d 0d89 8fbc 50f2 51bc
00000130: 2ebd 463c 1475 a23c 4cde ac3b e836 113c
00000140: 7972 a53b 5c73 113c db77 8ebc 1cfa 53b9
00000150: e1a1 a03b fdd8 bcbb fc9f 0c3c ff0f dd3b
00000160: 9090 aebc 78b9 f43a b866 cd3c 38ad 14bc
00000170: 8810 8abc

bn2.running_var f4 [93]
0.074730754 0.6803175 0.1166187 0.48025924 0.15196435 0.31634447 0.3305556 0.33111706
0.2502426 0.13238451 0.31134534 0.38161954 0.18851037 0.3843116 0.4623616 0.25748864
0.23999694 0.20026441 0.12870353 0.124764524 0.15140988 0.2697733 0.31336892 0.28419393
0.379787 0.40916133 0.11084776 0.31747094 0.28026754 0.48614532 0.2663633 0.09279025
0.18818153 0.2831321 0.21345286 0.25440285 0.23543593 0.7488947 0.21812794 0.0856247
0.19433448 0.20762047 0.24856675 0.16260771 0.30495626 0.35524517 0.13109125 0.4536529
0.55995834 0.35715666 0.39916214 0.06374632 0.41488278 0.04198317 0.6151768 0.16421016
0.22172512 0.09952321 0.49345616 0.17301503 0.28500342 0.22040851 0.28437197 0.14232838
0.82558763 0.32380444 0.06864898 0.47659105 0.26042965 0.19403215 0.3442026 0.16671456
0.35765842 0.24851418 0.26043144 0.16644739 0.59923047 0.26587445 0.13551028 0.26415715
0.69865626 0.1423451 0.21451105 0.05244364 0.17751266 0.38918522 0.17097898 0.13983092
0.10361795 0.12063002 0.19794199 0.08117933 0.29835862
00000000: 700c 993d 4a29 2e3f c9d5 ee3d 8ae4 f53e
00000010: 8b9c 1b3e e7f7 a13e 953e a93e 2d88 a93e
00000020: cc1f 803e ce8f 073e a868 9f3e a363 c33e
00000030: dd08 413e 7dc4 c43e a9ba ec3e 8dd5 833e
00000040: c2c1 753e 1d12 4d3e dcca 033e 8b84 ff3d
00000050: 310b 1b3e ba1f 8a3e e471 a03e de81 913e
00000060: 7173 c23e 987d d13e 2704 e33d 8d8b a23e
00000070: 3a7f 8f3e 0ae8 f83e c560 883e d108 be3d
00000080: a9b2 403e b1f6 903e 6393 5a3e 1741 823e
00000090: 1e16 713e 90b7 3f3f ee5c 5f3e 015c af3d
000000a0: 9eff 463e 769a 543e 4888 7e3e a382 263e
000000b0: 3a23 9c3e b2e2 b53e c93c 063e 3145 e83e
000000c0: 6e59 0f3f 3ddd b63e fb5e cc3e 6e8d 823d
000000d0: 846b d43e 8bf6 2b3d 3a7c 1d3f b526 283e
000000e0: e90b 633e d3d2 cb3d 49a6 fc3e da2a 313e
000000f0: f8eb 913e c5b2 613e 3499 913e 88be 113e
00000100: b659 533f b2c9 a53e d697 8c3d be03 f43e
00000110: 0957 853e 5db0 463e 533b b03e 39b7 2a3e
00000120: 011f b73e 807a 7e3e 4557 853e 2f71 2a3e
00000130: 2b67 193f b220 883e 35c3 0a3e 9b3f 873e
00000140: 23db 323f eac2 113e c9a8 5b3e 24cf 563d
00000150: e1c5 353e 4943 c73e 1d15 2f3e d62f 0f3e
00000160: a635 d43d df0c f73d 4eb1 4a3e 5941 a63d
00000170: 76c2 983e

bn3.weight f4 [94]
0.9627397 0.96252215 0.9628886 0.9611869 0.96255964 0.95938706 0.9600687 0.9606076
0.9612419 0.9601753 0.9621554 0.9601898 0.9612139 0.96217483 0.95989835 0.9612422
0.96012133 0.9599843 0.96095943 0.96031684 0.96202296 0.9631997 0.9644105 0.9601098
0.9600534 0.9622474 0.9594038 0.96251726 0.9599163 0.9618871 0.9607026 0.96186566
0.96183896 0.9583923 0.9618643 0.96026915 0.9632837 0.9630755 0.9635126 0.9595349
0.96110946 0.9610609 0.9620934 0.9589051 0.9620122 0.96114063 0.96083117 0.9614898
0.9608945 0.96034634 0.9637115 0.96076417 0.9623993 0.96321684 0.9611889 0.9617087
0.9612229 0.96033514 0.9616735 0.95974046 0.9622892 0.95909584 0.9607234 0.96131724
0.9609355 0.96104336 0.96640044 0.9611463 0.96030694 0.96162325 0.9616715 0.959934
0.9616444 0.9611404 0.9618319 0.95990014 0.9606693 0.96227425 0.962144 0.96111715
0.96260506 0.9641996 0.9585426 0.9630877 0.9597304 0.9604672 0.95981425 0.9603638
0.96137977 0.9609637 0.961715 0.9618943 0.96236116 0.9602444
00000000: 1c76 763f da67 763f de7f 763f 5810 763f
00000010: 4f6a 763f 649a 753f 10c7 753f 61ea 753f
00000020: f313 763f 0cce 753f d14f 763f 00cf 753f
00000030: 1d12 763f 1751 763f e6bb 753f f813 763f
00000040: 83ca 753f 88c1 753f 7001 763f 53d7 753f
00000050: 2347 763f 4194 763f 9be3 763f c1c9 753f
00000060: 0fc6 753f d855 763f 7d9b 753f 8867 763f
00000070: 13bd 753f 3c3e 763f 9bf0 753f d43c 763f
00000080: 143b 763f 3359 753f bd3c 763f 33d4 753f
00000090: c399 763f 1e8c 763f c3a8 763f 14a4 753f
000000a0: 450b 763f 1608 763f c14b 763f ce7a 753f
000000b0: 6e46 763f 500d 763f 08f9 753f 3224 763f
000000c0: 2ffd 753f 42d9 753f ccb5 763f a4f4 753f
000000d0: cd5f 763f 6195 763f 7a10 763f 8b32 763f
000000e0: b412 763f 86d8 753f 3c30 763f 8db1 753f
000000f0: 9658 763f 4e87 753f f8f1 753f e318 763f
00000100: deff 753f f006 763f 0566 773f af0d 763f
00000110: add6 753f f12c 763f 1a30 763f 3cbe 753f
00000120: 542e 763f 4c0d 763f 9e3a 763f 04bc 753f
00000130: 6cee 753f 9b57 763f 124f 763f c60b 763f
00000140: 496d 763f c9d5 763f 0c63 753f ea8c 763f
00000150: e4b0 753f 2ee1 753f 63b6 753f 67da 753f
00000160: fc1c 763f b801 763f f432 763f b43e 763f
00000170: 4d5d 763f 94d2 753f
